{
  "nodes": [
    {
      "op": "null", 
      "name": "input.1", 
      "inputs": []
    }, 
    {
      "op": "Pad", 
      "name": "pad0", 
      "attrs": {
        "mode": "constant", 
        "pad_width": "(0, 0, 0, 0, 1, 1, 1, 1)"
      }, 
      "inputs": [[0, 0, 0]]
    }, 
    {
      "op": "null", 
      "name": "backbone.features.0.0.weight", 
      "attrs": {"__shape__": "(32, 3, 3, 3)"}, 
      "inputs": []
    }, 
    {
      "op": "Convolution", 
      "name": "convolution0", 
      "attrs": {
        "dilate": "(1, 1)", 
        "kernel": "(3, 3)", 
        "no_bias": "True", 
        "num_filter": "32", 
        "num_group": "1", 
        "stride": "(2, 2)"
      }, 
      "inputs": [[1, 0, 0], [2, 0, 0]]
    }, 
    {
      "op": "null", 
      "name": "backbone.features.0.1.weight", 
      "attrs": {"__shape__": "(32,)"}, 
      "inputs": []
    }, 
    {
      "op": "null", 
      "name": "backbone.features.0.1.bias", 
      "attrs": {"__shape__": "(32,)"}, 
      "inputs": []
    }, 
    {
      "op": "null", 
      "name": "backbone.features.0.1.running_mean", 
      "attrs": {
        "__init__": "[\"zero\", {}]", 
        "__shape__": "(32,)"
      }, 
      "inputs": []
    }, 
    {
      "op": "null", 
      "name": "backbone.features.0.1.running_var", 
      "attrs": {
        "__init__": "[\"one\", {}]", 
        "__shape__": "(32,)"
      }, 
      "inputs": []
    }, 
    {
      "op": "BatchNorm", 
      "name": "batchnorm0", 
      "attrs": {
        "cudnn_off": "1", 
        "eps": "9.999999747378752e-06", 
        "fix_gamma": "False", 
        "momentum": "0.8999999761581421"
      }, 
      "inputs": [[3, 0, 0], [4, 0, 0], [5, 0, 0], [6, 0, 1], [7, 0, 1]]
    }, 
    {
      "op": "relu", 
      "name": "relu0", 
      "inputs": [[8, 0, 0]]
    }, 
    {
      "op": "Pad", 
      "name": "pad1", 
      "attrs": {
        "mode": "constant", 
        "pad_width": "(0, 0, 0, 0, 1, 1, 1, 1)"
      }, 
      "inputs": [[9, 0, 0]]
    }, 
    {
      "op": "null", 
      "name": "backbone.features.1.conv.0.weight", 
      "attrs": {"__shape__": "(32, 1, 3, 3)"}, 
      "inputs": []
    }, 
    {
      "op": "Convolution", 
      "name": "convolution1", 
      "attrs": {
        "dilate": "(1, 1)", 
        "kernel": "(3, 3)", 
        "no_bias": "True", 
        "num_filter": "32", 
        "num_group": "32", 
        "stride": "(1, 1)"
      }, 
      "inputs": [[10, 0, 0], [11, 0, 0]]
    }, 
    {
      "op": "null", 
      "name": "backbone.features.1.conv.1.weight", 
      "attrs": {"__shape__": "(32,)"}, 
      "inputs": []
    }, 
    {
      "op": "null", 
      "name": "backbone.features.1.conv.1.bias", 
      "attrs": {"__shape__": "(32,)"}, 
      "inputs": []
    }, 
    {
      "op": "null", 
      "name": "backbone.features.1.conv.1.running_mean", 
      "attrs": {
        "__init__": "[\"zero\", {}]", 
        "__shape__": "(32,)"
      }, 
      "inputs": []
    }, 
    {
      "op": "null", 
      "name": "backbone.features.1.conv.1.running_var", 
      "attrs": {
        "__init__": "[\"one\", {}]", 
        "__shape__": "(32,)"
      }, 
      "inputs": []
    }, 
    {
      "op": "BatchNorm", 
      "name": "batchnorm1", 
      "attrs": {
        "cudnn_off": "1", 
        "eps": "9.999999747378752e-06", 
        "fix_gamma": "False", 
        "momentum": "0.8999999761581421"
      }, 
      "inputs": [[12, 0, 0], [13, 0, 0], [14, 0, 0], [15, 0, 1], [16, 0, 1]]
    }, 
    {
      "op": "relu", 
      "name": "relu1", 
      "inputs": [[17, 0, 0]]
    }, 
    {
      "op": "Pad", 
      "name": "pad2", 
      "attrs": {
        "mode": "constant", 
        "pad_width": "(0, 0, 0, 0, 0, 0, 0, 0)"
      }, 
      "inputs": [[18, 0, 0]]
    }, 
    {
      "op": "null", 
      "name": "backbone.features.1.conv.3.weight", 
      "attrs": {"__shape__": "(16, 32, 1, 1)"}, 
      "inputs": []
    }, 
    {
      "op": "Convolution", 
      "name": "convolution2", 
      "attrs": {
        "dilate": "(1, 1)", 
        "kernel": "(1, 1)", 
        "no_bias": "True", 
        "num_filter": "16", 
        "num_group": "1", 
        "stride": "(1, 1)"
      }, 
      "inputs": [[19, 0, 0], [20, 0, 0]]
    }, 
    {
      "op": "null", 
      "name": "backbone.features.1.conv.4.weight", 
      "attrs": {"__shape__": "(16,)"}, 
      "inputs": []
    }, 
    {
      "op": "null", 
      "name": "backbone.features.1.conv.4.bias", 
      "attrs": {"__shape__": "(16,)"}, 
      "inputs": []
    }, 
    {
      "op": "null", 
      "name": "backbone.features.1.conv.4.running_mean", 
      "attrs": {
        "__init__": "[\"zero\", {}]", 
        "__shape__": "(16,)"
      }, 
      "inputs": []
    }, 
    {
      "op": "null", 
      "name": "backbone.features.1.conv.4.running_var", 
      "attrs": {
        "__init__": "[\"one\", {}]", 
        "__shape__": "(16,)"
      }, 
      "inputs": []
    }, 
    {
      "op": "BatchNorm", 
      "name": "batchnorm2", 
      "attrs": {
        "cudnn_off": "1", 
        "eps": "9.999999747378752e-06", 
        "fix_gamma": "False", 
        "momentum": "0.8999999761581421"
      }, 
      "inputs": [[21, 0, 0], [22, 0, 0], [23, 0, 0], [24, 0, 1], [25, 0, 1]]
    }, 
    {
      "op": "Pad", 
      "name": "pad3", 
      "attrs": {
        "mode": "constant", 
        "pad_width": "(0, 0, 0, 0, 0, 0, 0, 0)"
      }, 
      "inputs": [[26, 0, 0]]
    }, 
    {
      "op": "null", 
      "name": "backbone.features.2.conv.0.weight", 
      "attrs": {"__shape__": "(96, 16, 1, 1)"}, 
      "inputs": []
    }, 
    {
      "op": "Convolution", 
      "name": "convolution3", 
      "attrs": {
        "dilate": "(1, 1)", 
        "kernel": "(1, 1)", 
        "no_bias": "True", 
        "num_filter": "96", 
        "num_group": "1", 
        "stride": "(1, 1)"
      }, 
      "inputs": [[27, 0, 0], [28, 0, 0]]
    }, 
    {
      "op": "null", 
      "name": "backbone.features.2.conv.1.weight", 
      "attrs": {"__shape__": "(96,)"}, 
      "inputs": []
    }, 
    {
      "op": "null", 
      "name": "backbone.features.2.conv.1.bias", 
      "attrs": {"__shape__": "(96,)"}, 
      "inputs": []
    }, 
    {
      "op": "null", 
      "name": "backbone.features.2.conv.1.running_mean", 
      "attrs": {
        "__init__": "[\"zero\", {}]", 
        "__shape__": "(96,)"
      }, 
      "inputs": []
    }, 
    {
      "op": "null", 
      "name": "backbone.features.2.conv.1.running_var", 
      "attrs": {
        "__init__": "[\"one\", {}]", 
        "__shape__": "(96,)"
      }, 
      "inputs": []
    }, 
    {
      "op": "BatchNorm", 
      "name": "batchnorm3", 
      "attrs": {
        "cudnn_off": "1", 
        "eps": "9.999999747378752e-06", 
        "fix_gamma": "False", 
        "momentum": "0.8999999761581421"
      }, 
      "inputs": [[29, 0, 0], [30, 0, 0], [31, 0, 0], [32, 0, 1], [33, 0, 1]]
    }, 
    {
      "op": "relu", 
      "name": "relu2", 
      "inputs": [[34, 0, 0]]
    }, 
    {
      "op": "Pad", 
      "name": "pad4", 
      "attrs": {
        "mode": "constant", 
        "pad_width": "(0, 0, 0, 0, 1, 1, 1, 1)"
      }, 
      "inputs": [[35, 0, 0]]
    }, 
    {
      "op": "null", 
      "name": "backbone.features.2.conv.3.weight", 
      "attrs": {"__shape__": "(96, 1, 3, 3)"}, 
      "inputs": []
    }, 
    {
      "op": "Convolution", 
      "name": "convolution4", 
      "attrs": {
        "dilate": "(1, 1)", 
        "kernel": "(3, 3)", 
        "no_bias": "True", 
        "num_filter": "96", 
        "num_group": "96", 
        "stride": "(2, 2)"
      }, 
      "inputs": [[36, 0, 0], [37, 0, 0]]
    }, 
    {
      "op": "null", 
      "name": "backbone.features.2.conv.4.weight", 
      "attrs": {"__shape__": "(96,)"}, 
      "inputs": []
    }, 
    {
      "op": "null", 
      "name": "backbone.features.2.conv.4.bias", 
      "attrs": {"__shape__": "(96,)"}, 
      "inputs": []
    }, 
    {
      "op": "null", 
      "name": "backbone.features.2.conv.4.running_mean", 
      "attrs": {
        "__init__": "[\"zero\", {}]", 
        "__shape__": "(96,)"
      }, 
      "inputs": []
    }, 
    {
      "op": "null", 
      "name": "backbone.features.2.conv.4.running_var", 
      "attrs": {
        "__init__": "[\"one\", {}]", 
        "__shape__": "(96,)"
      }, 
      "inputs": []
    }, 
    {
      "op": "BatchNorm", 
      "name": "batchnorm4", 
      "attrs": {
        "cudnn_off": "1", 
        "eps": "9.999999747378752e-06", 
        "fix_gamma": "False", 
        "momentum": "0.8999999761581421"
      }, 
      "inputs": [[38, 0, 0], [39, 0, 0], [40, 0, 0], [41, 0, 1], [42, 0, 1]]
    }, 
    {
      "op": "relu", 
      "name": "relu3", 
      "inputs": [[43, 0, 0]]
    }, 
    {
      "op": "Pad", 
      "name": "pad5", 
      "attrs": {
        "mode": "constant", 
        "pad_width": "(0, 0, 0, 0, 0, 0, 0, 0)"
      }, 
      "inputs": [[44, 0, 0]]
    }, 
    {
      "op": "null", 
      "name": "backbone.features.2.conv.6.weight", 
      "attrs": {"__shape__": "(24, 96, 1, 1)"}, 
      "inputs": []
    }, 
    {
      "op": "Convolution", 
      "name": "convolution5", 
      "attrs": {
        "dilate": "(1, 1)", 
        "kernel": "(1, 1)", 
        "no_bias": "True", 
        "num_filter": "24", 
        "num_group": "1", 
        "stride": "(1, 1)"
      }, 
      "inputs": [[45, 0, 0], [46, 0, 0]]
    }, 
    {
      "op": "null", 
      "name": "backbone.features.2.conv.7.weight", 
      "attrs": {"__shape__": "(24,)"}, 
      "inputs": []
    }, 
    {
      "op": "null", 
      "name": "backbone.features.2.conv.7.bias", 
      "attrs": {"__shape__": "(24,)"}, 
      "inputs": []
    }, 
    {
      "op": "null", 
      "name": "backbone.features.2.conv.7.running_mean", 
      "attrs": {
        "__init__": "[\"zero\", {}]", 
        "__shape__": "(24,)"
      }, 
      "inputs": []
    }, 
    {
      "op": "null", 
      "name": "backbone.features.2.conv.7.running_var", 
      "attrs": {
        "__init__": "[\"one\", {}]", 
        "__shape__": "(24,)"
      }, 
      "inputs": []
    }, 
    {
      "op": "BatchNorm", 
      "name": "batchnorm5", 
      "attrs": {
        "cudnn_off": "1", 
        "eps": "9.999999747378752e-06", 
        "fix_gamma": "False", 
        "momentum": "0.8999999761581421"
      }, 
      "inputs": [[47, 0, 0], [48, 0, 0], [49, 0, 0], [50, 0, 1], [51, 0, 1]]
    }, 
    {
      "op": "Pad", 
      "name": "pad6", 
      "attrs": {
        "mode": "constant", 
        "pad_width": "(0, 0, 0, 0, 0, 0, 0, 0)"
      }, 
      "inputs": [[52, 0, 0]]
    }, 
    {
      "op": "null", 
      "name": "backbone.features.3.conv.0.weight", 
      "attrs": {"__shape__": "(144, 24, 1, 1)"}, 
      "inputs": []
    }, 
    {
      "op": "Convolution", 
      "name": "convolution6", 
      "attrs": {
        "dilate": "(1, 1)", 
        "kernel": "(1, 1)", 
        "no_bias": "True", 
        "num_filter": "144", 
        "num_group": "1", 
        "stride": "(1, 1)"
      }, 
      "inputs": [[53, 0, 0], [54, 0, 0]]
    }, 
    {
      "op": "null", 
      "name": "backbone.features.3.conv.1.weight", 
      "attrs": {"__shape__": "(144,)"}, 
      "inputs": []
    }, 
    {
      "op": "null", 
      "name": "backbone.features.3.conv.1.bias", 
      "attrs": {"__shape__": "(144,)"}, 
      "inputs": []
    }, 
    {
      "op": "null", 
      "name": "backbone.features.3.conv.1.running_mean", 
      "attrs": {
        "__init__": "[\"zero\", {}]", 
        "__shape__": "(144,)"
      }, 
      "inputs": []
    }, 
    {
      "op": "null", 
      "name": "backbone.features.3.conv.1.running_var", 
      "attrs": {
        "__init__": "[\"one\", {}]", 
        "__shape__": "(144,)"
      }, 
      "inputs": []
    }, 
    {
      "op": "BatchNorm", 
      "name": "batchnorm6", 
      "attrs": {
        "cudnn_off": "1", 
        "eps": "9.999999747378752e-06", 
        "fix_gamma": "False", 
        "momentum": "0.8999999761581421"
      }, 
      "inputs": [[55, 0, 0], [56, 0, 0], [57, 0, 0], [58, 0, 1], [59, 0, 1]]
    }, 
    {
      "op": "relu", 
      "name": "relu4", 
      "inputs": [[60, 0, 0]]
    }, 
    {
      "op": "Pad", 
      "name": "pad7", 
      "attrs": {
        "mode": "constant", 
        "pad_width": "(0, 0, 0, 0, 1, 1, 1, 1)"
      }, 
      "inputs": [[61, 0, 0]]
    }, 
    {
      "op": "null", 
      "name": "backbone.features.3.conv.3.weight", 
      "attrs": {"__shape__": "(144, 1, 3, 3)"}, 
      "inputs": []
    }, 
    {
      "op": "Convolution", 
      "name": "convolution7", 
      "attrs": {
        "dilate": "(1, 1)", 
        "kernel": "(3, 3)", 
        "no_bias": "True", 
        "num_filter": "144", 
        "num_group": "144", 
        "stride": "(1, 1)"
      }, 
      "inputs": [[62, 0, 0], [63, 0, 0]]
    }, 
    {
      "op": "null", 
      "name": "backbone.features.3.conv.4.weight", 
      "attrs": {"__shape__": "(144,)"}, 
      "inputs": []
    }, 
    {
      "op": "null", 
      "name": "backbone.features.3.conv.4.bias", 
      "attrs": {"__shape__": "(144,)"}, 
      "inputs": []
    }, 
    {
      "op": "null", 
      "name": "backbone.features.3.conv.4.running_mean", 
      "attrs": {
        "__init__": "[\"zero\", {}]", 
        "__shape__": "(144,)"
      }, 
      "inputs": []
    }, 
    {
      "op": "null", 
      "name": "backbone.features.3.conv.4.running_var", 
      "attrs": {
        "__init__": "[\"one\", {}]", 
        "__shape__": "(144,)"
      }, 
      "inputs": []
    }, 
    {
      "op": "BatchNorm", 
      "name": "batchnorm7", 
      "attrs": {
        "cudnn_off": "1", 
        "eps": "9.999999747378752e-06", 
        "fix_gamma": "False", 
        "momentum": "0.8999999761581421"
      }, 
      "inputs": [[64, 0, 0], [65, 0, 0], [66, 0, 0], [67, 0, 1], [68, 0, 1]]
    }, 
    {
      "op": "relu", 
      "name": "relu5", 
      "inputs": [[69, 0, 0]]
    }, 
    {
      "op": "Pad", 
      "name": "pad8", 
      "attrs": {
        "mode": "constant", 
        "pad_width": "(0, 0, 0, 0, 0, 0, 0, 0)"
      }, 
      "inputs": [[70, 0, 0]]
    }, 
    {
      "op": "null", 
      "name": "backbone.features.3.conv.6.weight", 
      "attrs": {"__shape__": "(24, 144, 1, 1)"}, 
      "inputs": []
    }, 
    {
      "op": "Convolution", 
      "name": "convolution8", 
      "attrs": {
        "dilate": "(1, 1)", 
        "kernel": "(1, 1)", 
        "no_bias": "True", 
        "num_filter": "24", 
        "num_group": "1", 
        "stride": "(1, 1)"
      }, 
      "inputs": [[71, 0, 0], [72, 0, 0]]
    }, 
    {
      "op": "null", 
      "name": "backbone.features.3.conv.7.weight", 
      "attrs": {"__shape__": "(24,)"}, 
      "inputs": []
    }, 
    {
      "op": "null", 
      "name": "backbone.features.3.conv.7.bias", 
      "attrs": {"__shape__": "(24,)"}, 
      "inputs": []
    }, 
    {
      "op": "null", 
      "name": "backbone.features.3.conv.7.running_mean", 
      "attrs": {
        "__init__": "[\"zero\", {}]", 
        "__shape__": "(24,)"
      }, 
      "inputs": []
    }, 
    {
      "op": "null", 
      "name": "backbone.features.3.conv.7.running_var", 
      "attrs": {
        "__init__": "[\"one\", {}]", 
        "__shape__": "(24,)"
      }, 
      "inputs": []
    }, 
    {
      "op": "BatchNorm", 
      "name": "batchnorm8", 
      "attrs": {
        "cudnn_off": "1", 
        "eps": "9.999999747378752e-06", 
        "fix_gamma": "False", 
        "momentum": "0.8999999761581421"
      }, 
      "inputs": [[73, 0, 0], [74, 0, 0], [75, 0, 0], [76, 0, 1], [77, 0, 1]]
    }, 
    {
      "op": "broadcast_add", 
      "name": "broadcast_add0", 
      "inputs": [[52, 0, 0], [78, 0, 0]]
    }, 
    {
      "op": "Pad", 
      "name": "pad9", 
      "attrs": {
        "mode": "constant", 
        "pad_width": "(0, 0, 0, 0, 0, 0, 0, 0)"
      }, 
      "inputs": [[79, 0, 0]]
    }, 
    {
      "op": "null", 
      "name": "backbone.features.4.conv.0.weight", 
      "attrs": {"__shape__": "(144, 24, 1, 1)"}, 
      "inputs": []
    }, 
    {
      "op": "Convolution", 
      "name": "convolution9", 
      "attrs": {
        "dilate": "(1, 1)", 
        "kernel": "(1, 1)", 
        "no_bias": "True", 
        "num_filter": "144", 
        "num_group": "1", 
        "stride": "(1, 1)"
      }, 
      "inputs": [[80, 0, 0], [81, 0, 0]]
    }, 
    {
      "op": "null", 
      "name": "backbone.features.4.conv.1.weight", 
      "attrs": {"__shape__": "(144,)"}, 
      "inputs": []
    }, 
    {
      "op": "null", 
      "name": "backbone.features.4.conv.1.bias", 
      "attrs": {"__shape__": "(144,)"}, 
      "inputs": []
    }, 
    {
      "op": "null", 
      "name": "backbone.features.4.conv.1.running_mean", 
      "attrs": {
        "__init__": "[\"zero\", {}]", 
        "__shape__": "(144,)"
      }, 
      "inputs": []
    }, 
    {
      "op": "null", 
      "name": "backbone.features.4.conv.1.running_var", 
      "attrs": {
        "__init__": "[\"one\", {}]", 
        "__shape__": "(144,)"
      }, 
      "inputs": []
    }, 
    {
      "op": "BatchNorm", 
      "name": "batchnorm9", 
      "attrs": {
        "cudnn_off": "1", 
        "eps": "9.999999747378752e-06", 
        "fix_gamma": "False", 
        "momentum": "0.8999999761581421"
      }, 
      "inputs": [[82, 0, 0], [83, 0, 0], [84, 0, 0], [85, 0, 1], [86, 0, 1]]
    }, 
    {
      "op": "relu", 
      "name": "relu6", 
      "inputs": [[87, 0, 0]]
    }, 
    {
      "op": "Pad", 
      "name": "pad10", 
      "attrs": {
        "mode": "constant", 
        "pad_width": "(0, 0, 0, 0, 1, 1, 1, 1)"
      }, 
      "inputs": [[88, 0, 0]]
    }, 
    {
      "op": "null", 
      "name": "backbone.features.4.conv.3.weight", 
      "attrs": {"__shape__": "(144, 1, 3, 3)"}, 
      "inputs": []
    }, 
    {
      "op": "Convolution", 
      "name": "convolution10", 
      "attrs": {
        "dilate": "(1, 1)", 
        "kernel": "(3, 3)", 
        "no_bias": "True", 
        "num_filter": "144", 
        "num_group": "144", 
        "stride": "(2, 2)"
      }, 
      "inputs": [[89, 0, 0], [90, 0, 0]]
    }, 
    {
      "op": "null", 
      "name": "backbone.features.4.conv.4.weight", 
      "attrs": {"__shape__": "(144,)"}, 
      "inputs": []
    }, 
    {
      "op": "null", 
      "name": "backbone.features.4.conv.4.bias", 
      "attrs": {"__shape__": "(144,)"}, 
      "inputs": []
    }, 
    {
      "op": "null", 
      "name": "backbone.features.4.conv.4.running_mean", 
      "attrs": {
        "__init__": "[\"zero\", {}]", 
        "__shape__": "(144,)"
      }, 
      "inputs": []
    }, 
    {
      "op": "null", 
      "name": "backbone.features.4.conv.4.running_var", 
      "attrs": {
        "__init__": "[\"one\", {}]", 
        "__shape__": "(144,)"
      }, 
      "inputs": []
    }, 
    {
      "op": "BatchNorm", 
      "name": "batchnorm10", 
      "attrs": {
        "cudnn_off": "1", 
        "eps": "9.999999747378752e-06", 
        "fix_gamma": "False", 
        "momentum": "0.8999999761581421"
      }, 
      "inputs": [[91, 0, 0], [92, 0, 0], [93, 0, 0], [94, 0, 1], [95, 0, 1]]
    }, 
    {
      "op": "relu", 
      "name": "relu7", 
      "inputs": [[96, 0, 0]]
    }, 
    {
      "op": "Pad", 
      "name": "pad11", 
      "attrs": {
        "mode": "constant", 
        "pad_width": "(0, 0, 0, 0, 0, 0, 0, 0)"
      }, 
      "inputs": [[97, 0, 0]]
    }, 
    {
      "op": "null", 
      "name": "backbone.features.4.conv.6.weight", 
      "attrs": {"__shape__": "(32, 144, 1, 1)"}, 
      "inputs": []
    }, 
    {
      "op": "Convolution", 
      "name": "convolution11", 
      "attrs": {
        "dilate": "(1, 1)", 
        "kernel": "(1, 1)", 
        "no_bias": "True", 
        "num_filter": "32", 
        "num_group": "1", 
        "stride": "(1, 1)"
      }, 
      "inputs": [[98, 0, 0], [99, 0, 0]]
    }, 
    {
      "op": "null", 
      "name": "backbone.features.4.conv.7.weight", 
      "attrs": {"__shape__": "(32,)"}, 
      "inputs": []
    }, 
    {
      "op": "null", 
      "name": "backbone.features.4.conv.7.bias", 
      "attrs": {"__shape__": "(32,)"}, 
      "inputs": []
    }, 
    {
      "op": "null", 
      "name": "backbone.features.4.conv.7.running_mean", 
      "attrs": {
        "__init__": "[\"zero\", {}]", 
        "__shape__": "(32,)"
      }, 
      "inputs": []
    }, 
    {
      "op": "null", 
      "name": "backbone.features.4.conv.7.running_var", 
      "attrs": {
        "__init__": "[\"one\", {}]", 
        "__shape__": "(32,)"
      }, 
      "inputs": []
    }, 
    {
      "op": "BatchNorm", 
      "name": "batchnorm11", 
      "attrs": {
        "cudnn_off": "1", 
        "eps": "9.999999747378752e-06", 
        "fix_gamma": "False", 
        "momentum": "0.8999999761581421"
      }, 
      "inputs": [[100, 0, 0], [101, 0, 0], [102, 0, 0], [103, 0, 1], [104, 0, 1]]
    }, 
    {
      "op": "Pad", 
      "name": "pad12", 
      "attrs": {
        "mode": "constant", 
        "pad_width": "(0, 0, 0, 0, 0, 0, 0, 0)"
      }, 
      "inputs": [[105, 0, 0]]
    }, 
    {
      "op": "null", 
      "name": "backbone.features.5.conv.0.weight", 
      "attrs": {"__shape__": "(192, 32, 1, 1)"}, 
      "inputs": []
    }, 
    {
      "op": "Convolution", 
      "name": "convolution12", 
      "attrs": {
        "dilate": "(1, 1)", 
        "kernel": "(1, 1)", 
        "no_bias": "True", 
        "num_filter": "192", 
        "num_group": "1", 
        "stride": "(1, 1)"
      }, 
      "inputs": [[106, 0, 0], [107, 0, 0]]
    }, 
    {
      "op": "null", 
      "name": "backbone.features.5.conv.1.weight", 
      "attrs": {"__shape__": "(192,)"}, 
      "inputs": []
    }, 
    {
      "op": "null", 
      "name": "backbone.features.5.conv.1.bias", 
      "attrs": {"__shape__": "(192,)"}, 
      "inputs": []
    }, 
    {
      "op": "null", 
      "name": "backbone.features.5.conv.1.running_mean", 
      "attrs": {
        "__init__": "[\"zero\", {}]", 
        "__shape__": "(192,)"
      }, 
      "inputs": []
    }, 
    {
      "op": "null", 
      "name": "backbone.features.5.conv.1.running_var", 
      "attrs": {
        "__init__": "[\"one\", {}]", 
        "__shape__": "(192,)"
      }, 
      "inputs": []
    }, 
    {
      "op": "BatchNorm", 
      "name": "batchnorm12", 
      "attrs": {
        "cudnn_off": "1", 
        "eps": "9.999999747378752e-06", 
        "fix_gamma": "False", 
        "momentum": "0.8999999761581421"
      }, 
      "inputs": [[108, 0, 0], [109, 0, 0], [110, 0, 0], [111, 0, 1], [112, 0, 1]]
    }, 
    {
      "op": "relu", 
      "name": "relu8", 
      "inputs": [[113, 0, 0]]
    }, 
    {
      "op": "Pad", 
      "name": "pad13", 
      "attrs": {
        "mode": "constant", 
        "pad_width": "(0, 0, 0, 0, 1, 1, 1, 1)"
      }, 
      "inputs": [[114, 0, 0]]
    }, 
    {
      "op": "null", 
      "name": "backbone.features.5.conv.3.weight", 
      "attrs": {"__shape__": "(192, 1, 3, 3)"}, 
      "inputs": []
    }, 
    {
      "op": "Convolution", 
      "name": "convolution13", 
      "attrs": {
        "dilate": "(1, 1)", 
        "kernel": "(3, 3)", 
        "no_bias": "True", 
        "num_filter": "192", 
        "num_group": "192", 
        "stride": "(1, 1)"
      }, 
      "inputs": [[115, 0, 0], [116, 0, 0]]
    }, 
    {
      "op": "null", 
      "name": "backbone.features.5.conv.4.weight", 
      "attrs": {"__shape__": "(192,)"}, 
      "inputs": []
    }, 
    {
      "op": "null", 
      "name": "backbone.features.5.conv.4.bias", 
      "attrs": {"__shape__": "(192,)"}, 
      "inputs": []
    }, 
    {
      "op": "null", 
      "name": "backbone.features.5.conv.4.running_mean", 
      "attrs": {
        "__init__": "[\"zero\", {}]", 
        "__shape__": "(192,)"
      }, 
      "inputs": []
    }, 
    {
      "op": "null", 
      "name": "backbone.features.5.conv.4.running_var", 
      "attrs": {
        "__init__": "[\"one\", {}]", 
        "__shape__": "(192,)"
      }, 
      "inputs": []
    }, 
    {
      "op": "BatchNorm", 
      "name": "batchnorm13", 
      "attrs": {
        "cudnn_off": "1", 
        "eps": "9.999999747378752e-06", 
        "fix_gamma": "False", 
        "momentum": "0.8999999761581421"
      }, 
      "inputs": [[117, 0, 0], [118, 0, 0], [119, 0, 0], [120, 0, 1], [121, 0, 1]]
    }, 
    {
      "op": "relu", 
      "name": "relu9", 
      "inputs": [[122, 0, 0]]
    }, 
    {
      "op": "Pad", 
      "name": "pad14", 
      "attrs": {
        "mode": "constant", 
        "pad_width": "(0, 0, 0, 0, 0, 0, 0, 0)"
      }, 
      "inputs": [[123, 0, 0]]
    }, 
    {
      "op": "null", 
      "name": "backbone.features.5.conv.6.weight", 
      "attrs": {"__shape__": "(32, 192, 1, 1)"}, 
      "inputs": []
    }, 
    {
      "op": "Convolution", 
      "name": "convolution14", 
      "attrs": {
        "dilate": "(1, 1)", 
        "kernel": "(1, 1)", 
        "no_bias": "True", 
        "num_filter": "32", 
        "num_group": "1", 
        "stride": "(1, 1)"
      }, 
      "inputs": [[124, 0, 0], [125, 0, 0]]
    }, 
    {
      "op": "null", 
      "name": "backbone.features.5.conv.7.weight", 
      "attrs": {"__shape__": "(32,)"}, 
      "inputs": []
    }, 
    {
      "op": "null", 
      "name": "backbone.features.5.conv.7.bias", 
      "attrs": {"__shape__": "(32,)"}, 
      "inputs": []
    }, 
    {
      "op": "null", 
      "name": "backbone.features.5.conv.7.running_mean", 
      "attrs": {
        "__init__": "[\"zero\", {}]", 
        "__shape__": "(32,)"
      }, 
      "inputs": []
    }, 
    {
      "op": "null", 
      "name": "backbone.features.5.conv.7.running_var", 
      "attrs": {
        "__init__": "[\"one\", {}]", 
        "__shape__": "(32,)"
      }, 
      "inputs": []
    }, 
    {
      "op": "BatchNorm", 
      "name": "batchnorm14", 
      "attrs": {
        "cudnn_off": "1", 
        "eps": "9.999999747378752e-06", 
        "fix_gamma": "False", 
        "momentum": "0.8999999761581421"
      }, 
      "inputs": [[126, 0, 0], [127, 0, 0], [128, 0, 0], [129, 0, 1], [130, 0, 1]]
    }, 
    {
      "op": "broadcast_add", 
      "name": "broadcast_add1", 
      "inputs": [[105, 0, 0], [131, 0, 0]]
    }, 
    {
      "op": "Pad", 
      "name": "pad15", 
      "attrs": {
        "mode": "constant", 
        "pad_width": "(0, 0, 0, 0, 0, 0, 0, 0)"
      }, 
      "inputs": [[132, 0, 0]]
    }, 
    {
      "op": "null", 
      "name": "backbone.features.6.conv.0.weight", 
      "attrs": {"__shape__": "(192, 32, 1, 1)"}, 
      "inputs": []
    }, 
    {
      "op": "Convolution", 
      "name": "convolution15", 
      "attrs": {
        "dilate": "(1, 1)", 
        "kernel": "(1, 1)", 
        "no_bias": "True", 
        "num_filter": "192", 
        "num_group": "1", 
        "stride": "(1, 1)"
      }, 
      "inputs": [[133, 0, 0], [134, 0, 0]]
    }, 
    {
      "op": "null", 
      "name": "backbone.features.6.conv.1.weight", 
      "attrs": {"__shape__": "(192,)"}, 
      "inputs": []
    }, 
    {
      "op": "null", 
      "name": "backbone.features.6.conv.1.bias", 
      "attrs": {"__shape__": "(192,)"}, 
      "inputs": []
    }, 
    {
      "op": "null", 
      "name": "backbone.features.6.conv.1.running_mean", 
      "attrs": {
        "__init__": "[\"zero\", {}]", 
        "__shape__": "(192,)"
      }, 
      "inputs": []
    }, 
    {
      "op": "null", 
      "name": "backbone.features.6.conv.1.running_var", 
      "attrs": {
        "__init__": "[\"one\", {}]", 
        "__shape__": "(192,)"
      }, 
      "inputs": []
    }, 
    {
      "op": "BatchNorm", 
      "name": "batchnorm15", 
      "attrs": {
        "cudnn_off": "1", 
        "eps": "9.999999747378752e-06", 
        "fix_gamma": "False", 
        "momentum": "0.8999999761581421"
      }, 
      "inputs": [[135, 0, 0], [136, 0, 0], [137, 0, 0], [138, 0, 1], [139, 0, 1]]
    }, 
    {
      "op": "relu", 
      "name": "relu10", 
      "inputs": [[140, 0, 0]]
    }, 
    {
      "op": "Pad", 
      "name": "pad16", 
      "attrs": {
        "mode": "constant", 
        "pad_width": "(0, 0, 0, 0, 1, 1, 1, 1)"
      }, 
      "inputs": [[141, 0, 0]]
    }, 
    {
      "op": "null", 
      "name": "backbone.features.6.conv.3.weight", 
      "attrs": {"__shape__": "(192, 1, 3, 3)"}, 
      "inputs": []
    }, 
    {
      "op": "Convolution", 
      "name": "convolution16", 
      "attrs": {
        "dilate": "(1, 1)", 
        "kernel": "(3, 3)", 
        "no_bias": "True", 
        "num_filter": "192", 
        "num_group": "192", 
        "stride": "(1, 1)"
      }, 
      "inputs": [[142, 0, 0], [143, 0, 0]]
    }, 
    {
      "op": "null", 
      "name": "backbone.features.6.conv.4.weight", 
      "attrs": {"__shape__": "(192,)"}, 
      "inputs": []
    }, 
    {
      "op": "null", 
      "name": "backbone.features.6.conv.4.bias", 
      "attrs": {"__shape__": "(192,)"}, 
      "inputs": []
    }, 
    {
      "op": "null", 
      "name": "backbone.features.6.conv.4.running_mean", 
      "attrs": {
        "__init__": "[\"zero\", {}]", 
        "__shape__": "(192,)"
      }, 
      "inputs": []
    }, 
    {
      "op": "null", 
      "name": "backbone.features.6.conv.4.running_var", 
      "attrs": {
        "__init__": "[\"one\", {}]", 
        "__shape__": "(192,)"
      }, 
      "inputs": []
    }, 
    {
      "op": "BatchNorm", 
      "name": "batchnorm16", 
      "attrs": {
        "cudnn_off": "1", 
        "eps": "9.999999747378752e-06", 
        "fix_gamma": "False", 
        "momentum": "0.8999999761581421"
      }, 
      "inputs": [[144, 0, 0], [145, 0, 0], [146, 0, 0], [147, 0, 1], [148, 0, 1]]
    }, 
    {
      "op": "relu", 
      "name": "relu11", 
      "inputs": [[149, 0, 0]]
    }, 
    {
      "op": "Pad", 
      "name": "pad17", 
      "attrs": {
        "mode": "constant", 
        "pad_width": "(0, 0, 0, 0, 0, 0, 0, 0)"
      }, 
      "inputs": [[150, 0, 0]]
    }, 
    {
      "op": "null", 
      "name": "backbone.features.6.conv.6.weight", 
      "attrs": {"__shape__": "(32, 192, 1, 1)"}, 
      "inputs": []
    }, 
    {
      "op": "Convolution", 
      "name": "convolution17", 
      "attrs": {
        "dilate": "(1, 1)", 
        "kernel": "(1, 1)", 
        "no_bias": "True", 
        "num_filter": "32", 
        "num_group": "1", 
        "stride": "(1, 1)"
      }, 
      "inputs": [[151, 0, 0], [152, 0, 0]]
    }, 
    {
      "op": "null", 
      "name": "backbone.features.6.conv.7.weight", 
      "attrs": {"__shape__": "(32,)"}, 
      "inputs": []
    }, 
    {
      "op": "null", 
      "name": "backbone.features.6.conv.7.bias", 
      "attrs": {"__shape__": "(32,)"}, 
      "inputs": []
    }, 
    {
      "op": "null", 
      "name": "backbone.features.6.conv.7.running_mean", 
      "attrs": {
        "__init__": "[\"zero\", {}]", 
        "__shape__": "(32,)"
      }, 
      "inputs": []
    }, 
    {
      "op": "null", 
      "name": "backbone.features.6.conv.7.running_var", 
      "attrs": {
        "__init__": "[\"one\", {}]", 
        "__shape__": "(32,)"
      }, 
      "inputs": []
    }, 
    {
      "op": "BatchNorm", 
      "name": "batchnorm17", 
      "attrs": {
        "cudnn_off": "1", 
        "eps": "9.999999747378752e-06", 
        "fix_gamma": "False", 
        "momentum": "0.8999999761581421"
      }, 
      "inputs": [[153, 0, 0], [154, 0, 0], [155, 0, 0], [156, 0, 1], [157, 0, 1]]
    }, 
    {
      "op": "broadcast_add", 
      "name": "broadcast_add2", 
      "inputs": [[132, 0, 0], [158, 0, 0]]
    }, 
    {
      "op": "Pad", 
      "name": "pad18", 
      "attrs": {
        "mode": "constant", 
        "pad_width": "(0, 0, 0, 0, 0, 0, 0, 0)"
      }, 
      "inputs": [[159, 0, 0]]
    }, 
    {
      "op": "null", 
      "name": "backbone.features.7.conv.0.weight", 
      "attrs": {"__shape__": "(192, 32, 1, 1)"}, 
      "inputs": []
    }, 
    {
      "op": "Convolution", 
      "name": "convolution18", 
      "attrs": {
        "dilate": "(1, 1)", 
        "kernel": "(1, 1)", 
        "no_bias": "True", 
        "num_filter": "192", 
        "num_group": "1", 
        "stride": "(1, 1)"
      }, 
      "inputs": [[160, 0, 0], [161, 0, 0]]
    }, 
    {
      "op": "null", 
      "name": "backbone.features.7.conv.1.weight", 
      "attrs": {"__shape__": "(192,)"}, 
      "inputs": []
    }, 
    {
      "op": "null", 
      "name": "backbone.features.7.conv.1.bias", 
      "attrs": {"__shape__": "(192,)"}, 
      "inputs": []
    }, 
    {
      "op": "null", 
      "name": "backbone.features.7.conv.1.running_mean", 
      "attrs": {
        "__init__": "[\"zero\", {}]", 
        "__shape__": "(192,)"
      }, 
      "inputs": []
    }, 
    {
      "op": "null", 
      "name": "backbone.features.7.conv.1.running_var", 
      "attrs": {
        "__init__": "[\"one\", {}]", 
        "__shape__": "(192,)"
      }, 
      "inputs": []
    }, 
    {
      "op": "BatchNorm", 
      "name": "batchnorm18", 
      "attrs": {
        "cudnn_off": "1", 
        "eps": "9.999999747378752e-06", 
        "fix_gamma": "False", 
        "momentum": "0.8999999761581421"
      }, 
      "inputs": [[162, 0, 0], [163, 0, 0], [164, 0, 0], [165, 0, 1], [166, 0, 1]]
    }, 
    {
      "op": "relu", 
      "name": "relu12", 
      "inputs": [[167, 0, 0]]
    }, 
    {
      "op": "Pad", 
      "name": "pad19", 
      "attrs": {
        "mode": "constant", 
        "pad_width": "(0, 0, 0, 0, 1, 1, 1, 1)"
      }, 
      "inputs": [[168, 0, 0]]
    }, 
    {
      "op": "null", 
      "name": "backbone.features.7.conv.3.weight", 
      "attrs": {"__shape__": "(192, 1, 3, 3)"}, 
      "inputs": []
    }, 
    {
      "op": "Convolution", 
      "name": "convolution19", 
      "attrs": {
        "dilate": "(1, 1)", 
        "kernel": "(3, 3)", 
        "no_bias": "True", 
        "num_filter": "192", 
        "num_group": "192", 
        "stride": "(2, 2)"
      }, 
      "inputs": [[169, 0, 0], [170, 0, 0]]
    }, 
    {
      "op": "null", 
      "name": "backbone.features.7.conv.4.weight", 
      "attrs": {"__shape__": "(192,)"}, 
      "inputs": []
    }, 
    {
      "op": "null", 
      "name": "backbone.features.7.conv.4.bias", 
      "attrs": {"__shape__": "(192,)"}, 
      "inputs": []
    }, 
    {
      "op": "null", 
      "name": "backbone.features.7.conv.4.running_mean", 
      "attrs": {
        "__init__": "[\"zero\", {}]", 
        "__shape__": "(192,)"
      }, 
      "inputs": []
    }, 
    {
      "op": "null", 
      "name": "backbone.features.7.conv.4.running_var", 
      "attrs": {
        "__init__": "[\"one\", {}]", 
        "__shape__": "(192,)"
      }, 
      "inputs": []
    }, 
    {
      "op": "BatchNorm", 
      "name": "batchnorm19", 
      "attrs": {
        "cudnn_off": "1", 
        "eps": "9.999999747378752e-06", 
        "fix_gamma": "False", 
        "momentum": "0.8999999761581421"
      }, 
      "inputs": [[171, 0, 0], [172, 0, 0], [173, 0, 0], [174, 0, 1], [175, 0, 1]]
    }, 
    {
      "op": "relu", 
      "name": "relu13", 
      "inputs": [[176, 0, 0]]
    }, 
    {
      "op": "Pad", 
      "name": "pad20", 
      "attrs": {
        "mode": "constant", 
        "pad_width": "(0, 0, 0, 0, 0, 0, 0, 0)"
      }, 
      "inputs": [[177, 0, 0]]
    }, 
    {
      "op": "null", 
      "name": "backbone.features.7.conv.6.weight", 
      "attrs": {"__shape__": "(64, 192, 1, 1)"}, 
      "inputs": []
    }, 
    {
      "op": "Convolution", 
      "name": "convolution20", 
      "attrs": {
        "dilate": "(1, 1)", 
        "kernel": "(1, 1)", 
        "no_bias": "True", 
        "num_filter": "64", 
        "num_group": "1", 
        "stride": "(1, 1)"
      }, 
      "inputs": [[178, 0, 0], [179, 0, 0]]
    }, 
    {
      "op": "null", 
      "name": "backbone.features.7.conv.7.weight", 
      "attrs": {"__shape__": "(64,)"}, 
      "inputs": []
    }, 
    {
      "op": "null", 
      "name": "backbone.features.7.conv.7.bias", 
      "attrs": {"__shape__": "(64,)"}, 
      "inputs": []
    }, 
    {
      "op": "null", 
      "name": "backbone.features.7.conv.7.running_mean", 
      "attrs": {
        "__init__": "[\"zero\", {}]", 
        "__shape__": "(64,)"
      }, 
      "inputs": []
    }, 
    {
      "op": "null", 
      "name": "backbone.features.7.conv.7.running_var", 
      "attrs": {
        "__init__": "[\"one\", {}]", 
        "__shape__": "(64,)"
      }, 
      "inputs": []
    }, 
    {
      "op": "BatchNorm", 
      "name": "batchnorm20", 
      "attrs": {
        "cudnn_off": "1", 
        "eps": "9.999999747378752e-06", 
        "fix_gamma": "False", 
        "momentum": "0.8999999761581421"
      }, 
      "inputs": [[180, 0, 0], [181, 0, 0], [182, 0, 0], [183, 0, 1], [184, 0, 1]]
    }, 
    {
      "op": "Pad", 
      "name": "pad21", 
      "attrs": {
        "mode": "constant", 
        "pad_width": "(0, 0, 0, 0, 0, 0, 0, 0)"
      }, 
      "inputs": [[185, 0, 0]]
    }, 
    {
      "op": "null", 
      "name": "backbone.features.8.conv.0.weight", 
      "attrs": {"__shape__": "(384, 64, 1, 1)"}, 
      "inputs": []
    }, 
    {
      "op": "Convolution", 
      "name": "convolution21", 
      "attrs": {
        "dilate": "(1, 1)", 
        "kernel": "(1, 1)", 
        "no_bias": "True", 
        "num_filter": "384", 
        "num_group": "1", 
        "stride": "(1, 1)"
      }, 
      "inputs": [[186, 0, 0], [187, 0, 0]]
    }, 
    {
      "op": "null", 
      "name": "backbone.features.8.conv.1.weight", 
      "attrs": {"__shape__": "(384,)"}, 
      "inputs": []
    }, 
    {
      "op": "null", 
      "name": "backbone.features.8.conv.1.bias", 
      "attrs": {"__shape__": "(384,)"}, 
      "inputs": []
    }, 
    {
      "op": "null", 
      "name": "backbone.features.8.conv.1.running_mean", 
      "attrs": {
        "__init__": "[\"zero\", {}]", 
        "__shape__": "(384,)"
      }, 
      "inputs": []
    }, 
    {
      "op": "null", 
      "name": "backbone.features.8.conv.1.running_var", 
      "attrs": {
        "__init__": "[\"one\", {}]", 
        "__shape__": "(384,)"
      }, 
      "inputs": []
    }, 
    {
      "op": "BatchNorm", 
      "name": "batchnorm21", 
      "attrs": {
        "cudnn_off": "1", 
        "eps": "9.999999747378752e-06", 
        "fix_gamma": "False", 
        "momentum": "0.8999999761581421"
      }, 
      "inputs": [[188, 0, 0], [189, 0, 0], [190, 0, 0], [191, 0, 1], [192, 0, 1]]
    }, 
    {
      "op": "relu", 
      "name": "relu14", 
      "inputs": [[193, 0, 0]]
    }, 
    {
      "op": "Pad", 
      "name": "pad22", 
      "attrs": {
        "mode": "constant", 
        "pad_width": "(0, 0, 0, 0, 1, 1, 1, 1)"
      }, 
      "inputs": [[194, 0, 0]]
    }, 
    {
      "op": "null", 
      "name": "backbone.features.8.conv.3.weight", 
      "attrs": {"__shape__": "(384, 1, 3, 3)"}, 
      "inputs": []
    }, 
    {
      "op": "Convolution", 
      "name": "convolution22", 
      "attrs": {
        "dilate": "(1, 1)", 
        "kernel": "(3, 3)", 
        "no_bias": "True", 
        "num_filter": "384", 
        "num_group": "384", 
        "stride": "(1, 1)"
      }, 
      "inputs": [[195, 0, 0], [196, 0, 0]]
    }, 
    {
      "op": "null", 
      "name": "backbone.features.8.conv.4.weight", 
      "attrs": {"__shape__": "(384,)"}, 
      "inputs": []
    }, 
    {
      "op": "null", 
      "name": "backbone.features.8.conv.4.bias", 
      "attrs": {"__shape__": "(384,)"}, 
      "inputs": []
    }, 
    {
      "op": "null", 
      "name": "backbone.features.8.conv.4.running_mean", 
      "attrs": {
        "__init__": "[\"zero\", {}]", 
        "__shape__": "(384,)"
      }, 
      "inputs": []
    }, 
    {
      "op": "null", 
      "name": "backbone.features.8.conv.4.running_var", 
      "attrs": {
        "__init__": "[\"one\", {}]", 
        "__shape__": "(384,)"
      }, 
      "inputs": []
    }, 
    {
      "op": "BatchNorm", 
      "name": "batchnorm22", 
      "attrs": {
        "cudnn_off": "1", 
        "eps": "9.999999747378752e-06", 
        "fix_gamma": "False", 
        "momentum": "0.8999999761581421"
      }, 
      "inputs": [[197, 0, 0], [198, 0, 0], [199, 0, 0], [200, 0, 1], [201, 0, 1]]
    }, 
    {
      "op": "relu", 
      "name": "relu15", 
      "inputs": [[202, 0, 0]]
    }, 
    {
      "op": "Pad", 
      "name": "pad23", 
      "attrs": {
        "mode": "constant", 
        "pad_width": "(0, 0, 0, 0, 0, 0, 0, 0)"
      }, 
      "inputs": [[203, 0, 0]]
    }, 
    {
      "op": "null", 
      "name": "backbone.features.8.conv.6.weight", 
      "attrs": {"__shape__": "(64, 384, 1, 1)"}, 
      "inputs": []
    }, 
    {
      "op": "Convolution", 
      "name": "convolution23", 
      "attrs": {
        "dilate": "(1, 1)", 
        "kernel": "(1, 1)", 
        "no_bias": "True", 
        "num_filter": "64", 
        "num_group": "1", 
        "stride": "(1, 1)"
      }, 
      "inputs": [[204, 0, 0], [205, 0, 0]]
    }, 
    {
      "op": "null", 
      "name": "backbone.features.8.conv.7.weight", 
      "attrs": {"__shape__": "(64,)"}, 
      "inputs": []
    }, 
    {
      "op": "null", 
      "name": "backbone.features.8.conv.7.bias", 
      "attrs": {"__shape__": "(64,)"}, 
      "inputs": []
    }, 
    {
      "op": "null", 
      "name": "backbone.features.8.conv.7.running_mean", 
      "attrs": {
        "__init__": "[\"zero\", {}]", 
        "__shape__": "(64,)"
      }, 
      "inputs": []
    }, 
    {
      "op": "null", 
      "name": "backbone.features.8.conv.7.running_var", 
      "attrs": {
        "__init__": "[\"one\", {}]", 
        "__shape__": "(64,)"
      }, 
      "inputs": []
    }, 
    {
      "op": "BatchNorm", 
      "name": "batchnorm23", 
      "attrs": {
        "cudnn_off": "1", 
        "eps": "9.999999747378752e-06", 
        "fix_gamma": "False", 
        "momentum": "0.8999999761581421"
      }, 
      "inputs": [[206, 0, 0], [207, 0, 0], [208, 0, 0], [209, 0, 1], [210, 0, 1]]
    }, 
    {
      "op": "broadcast_add", 
      "name": "broadcast_add3", 
      "inputs": [[185, 0, 0], [211, 0, 0]]
    }, 
    {
      "op": "Pad", 
      "name": "pad24", 
      "attrs": {
        "mode": "constant", 
        "pad_width": "(0, 0, 0, 0, 0, 0, 0, 0)"
      }, 
      "inputs": [[212, 0, 0]]
    }, 
    {
      "op": "null", 
      "name": "backbone.features.9.conv.0.weight", 
      "attrs": {"__shape__": "(384, 64, 1, 1)"}, 
      "inputs": []
    }, 
    {
      "op": "Convolution", 
      "name": "convolution24", 
      "attrs": {
        "dilate": "(1, 1)", 
        "kernel": "(1, 1)", 
        "no_bias": "True", 
        "num_filter": "384", 
        "num_group": "1", 
        "stride": "(1, 1)"
      }, 
      "inputs": [[213, 0, 0], [214, 0, 0]]
    }, 
    {
      "op": "null", 
      "name": "backbone.features.9.conv.1.weight", 
      "attrs": {"__shape__": "(384,)"}, 
      "inputs": []
    }, 
    {
      "op": "null", 
      "name": "backbone.features.9.conv.1.bias", 
      "attrs": {"__shape__": "(384,)"}, 
      "inputs": []
    }, 
    {
      "op": "null", 
      "name": "backbone.features.9.conv.1.running_mean", 
      "attrs": {
        "__init__": "[\"zero\", {}]", 
        "__shape__": "(384,)"
      }, 
      "inputs": []
    }, 
    {
      "op": "null", 
      "name": "backbone.features.9.conv.1.running_var", 
      "attrs": {
        "__init__": "[\"one\", {}]", 
        "__shape__": "(384,)"
      }, 
      "inputs": []
    }, 
    {
      "op": "BatchNorm", 
      "name": "batchnorm24", 
      "attrs": {
        "cudnn_off": "1", 
        "eps": "9.999999747378752e-06", 
        "fix_gamma": "False", 
        "momentum": "0.8999999761581421"
      }, 
      "inputs": [[215, 0, 0], [216, 0, 0], [217, 0, 0], [218, 0, 1], [219, 0, 1]]
    }, 
    {
      "op": "relu", 
      "name": "relu16", 
      "inputs": [[220, 0, 0]]
    }, 
    {
      "op": "Pad", 
      "name": "pad25", 
      "attrs": {
        "mode": "constant", 
        "pad_width": "(0, 0, 0, 0, 1, 1, 1, 1)"
      }, 
      "inputs": [[221, 0, 0]]
    }, 
    {
      "op": "null", 
      "name": "backbone.features.9.conv.3.weight", 
      "attrs": {"__shape__": "(384, 1, 3, 3)"}, 
      "inputs": []
    }, 
    {
      "op": "Convolution", 
      "name": "convolution25", 
      "attrs": {
        "dilate": "(1, 1)", 
        "kernel": "(3, 3)", 
        "no_bias": "True", 
        "num_filter": "384", 
        "num_group": "384", 
        "stride": "(1, 1)"
      }, 
      "inputs": [[222, 0, 0], [223, 0, 0]]
    }, 
    {
      "op": "null", 
      "name": "backbone.features.9.conv.4.weight", 
      "attrs": {"__shape__": "(384,)"}, 
      "inputs": []
    }, 
    {
      "op": "null", 
      "name": "backbone.features.9.conv.4.bias", 
      "attrs": {"__shape__": "(384,)"}, 
      "inputs": []
    }, 
    {
      "op": "null", 
      "name": "backbone.features.9.conv.4.running_mean", 
      "attrs": {
        "__init__": "[\"zero\", {}]", 
        "__shape__": "(384,)"
      }, 
      "inputs": []
    }, 
    {
      "op": "null", 
      "name": "backbone.features.9.conv.4.running_var", 
      "attrs": {
        "__init__": "[\"one\", {}]", 
        "__shape__": "(384,)"
      }, 
      "inputs": []
    }, 
    {
      "op": "BatchNorm", 
      "name": "batchnorm25", 
      "attrs": {
        "cudnn_off": "1", 
        "eps": "9.999999747378752e-06", 
        "fix_gamma": "False", 
        "momentum": "0.8999999761581421"
      }, 
      "inputs": [[224, 0, 0], [225, 0, 0], [226, 0, 0], [227, 0, 1], [228, 0, 1]]
    }, 
    {
      "op": "relu", 
      "name": "relu17", 
      "inputs": [[229, 0, 0]]
    }, 
    {
      "op": "Pad", 
      "name": "pad26", 
      "attrs": {
        "mode": "constant", 
        "pad_width": "(0, 0, 0, 0, 0, 0, 0, 0)"
      }, 
      "inputs": [[230, 0, 0]]
    }, 
    {
      "op": "null", 
      "name": "backbone.features.9.conv.6.weight", 
      "attrs": {"__shape__": "(64, 384, 1, 1)"}, 
      "inputs": []
    }, 
    {
      "op": "Convolution", 
      "name": "convolution26", 
      "attrs": {
        "dilate": "(1, 1)", 
        "kernel": "(1, 1)", 
        "no_bias": "True", 
        "num_filter": "64", 
        "num_group": "1", 
        "stride": "(1, 1)"
      }, 
      "inputs": [[231, 0, 0], [232, 0, 0]]
    }, 
    {
      "op": "null", 
      "name": "backbone.features.9.conv.7.weight", 
      "attrs": {"__shape__": "(64,)"}, 
      "inputs": []
    }, 
    {
      "op": "null", 
      "name": "backbone.features.9.conv.7.bias", 
      "attrs": {"__shape__": "(64,)"}, 
      "inputs": []
    }, 
    {
      "op": "null", 
      "name": "backbone.features.9.conv.7.running_mean", 
      "attrs": {
        "__init__": "[\"zero\", {}]", 
        "__shape__": "(64,)"
      }, 
      "inputs": []
    }, 
    {
      "op": "null", 
      "name": "backbone.features.9.conv.7.running_var", 
      "attrs": {
        "__init__": "[\"one\", {}]", 
        "__shape__": "(64,)"
      }, 
      "inputs": []
    }, 
    {
      "op": "BatchNorm", 
      "name": "batchnorm26", 
      "attrs": {
        "cudnn_off": "1", 
        "eps": "9.999999747378752e-06", 
        "fix_gamma": "False", 
        "momentum": "0.8999999761581421"
      }, 
      "inputs": [[233, 0, 0], [234, 0, 0], [235, 0, 0], [236, 0, 1], [237, 0, 1]]
    }, 
    {
      "op": "broadcast_add", 
      "name": "broadcast_add4", 
      "inputs": [[212, 0, 0], [238, 0, 0]]
    }, 
    {
      "op": "Pad", 
      "name": "pad27", 
      "attrs": {
        "mode": "constant", 
        "pad_width": "(0, 0, 0, 0, 0, 0, 0, 0)"
      }, 
      "inputs": [[239, 0, 0]]
    }, 
    {
      "op": "null", 
      "name": "backbone.features.10.conv.0.weight", 
      "attrs": {"__shape__": "(384, 64, 1, 1)"}, 
      "inputs": []
    }, 
    {
      "op": "Convolution", 
      "name": "convolution27", 
      "attrs": {
        "dilate": "(1, 1)", 
        "kernel": "(1, 1)", 
        "no_bias": "True", 
        "num_filter": "384", 
        "num_group": "1", 
        "stride": "(1, 1)"
      }, 
      "inputs": [[240, 0, 0], [241, 0, 0]]
    }, 
    {
      "op": "null", 
      "name": "backbone.features.10.conv.1.weight", 
      "attrs": {"__shape__": "(384,)"}, 
      "inputs": []
    }, 
    {
      "op": "null", 
      "name": "backbone.features.10.conv.1.bias", 
      "attrs": {"__shape__": "(384,)"}, 
      "inputs": []
    }, 
    {
      "op": "null", 
      "name": "backbone.features.10.conv.1.running_mean", 
      "attrs": {
        "__init__": "[\"zero\", {}]", 
        "__shape__": "(384,)"
      }, 
      "inputs": []
    }, 
    {
      "op": "null", 
      "name": "backbone.features.10.conv.1.running_var", 
      "attrs": {
        "__init__": "[\"one\", {}]", 
        "__shape__": "(384,)"
      }, 
      "inputs": []
    }, 
    {
      "op": "BatchNorm", 
      "name": "batchnorm27", 
      "attrs": {
        "cudnn_off": "1", 
        "eps": "9.999999747378752e-06", 
        "fix_gamma": "False", 
        "momentum": "0.8999999761581421"
      }, 
      "inputs": [[242, 0, 0], [243, 0, 0], [244, 0, 0], [245, 0, 1], [246, 0, 1]]
    }, 
    {
      "op": "relu", 
      "name": "relu18", 
      "inputs": [[247, 0, 0]]
    }, 
    {
      "op": "Pad", 
      "name": "pad28", 
      "attrs": {
        "mode": "constant", 
        "pad_width": "(0, 0, 0, 0, 1, 1, 1, 1)"
      }, 
      "inputs": [[248, 0, 0]]
    }, 
    {
      "op": "null", 
      "name": "backbone.features.10.conv.3.weight", 
      "attrs": {"__shape__": "(384, 1, 3, 3)"}, 
      "inputs": []
    }, 
    {
      "op": "Convolution", 
      "name": "convolution28", 
      "attrs": {
        "dilate": "(1, 1)", 
        "kernel": "(3, 3)", 
        "no_bias": "True", 
        "num_filter": "384", 
        "num_group": "384", 
        "stride": "(1, 1)"
      }, 
      "inputs": [[249, 0, 0], [250, 0, 0]]
    }, 
    {
      "op": "null", 
      "name": "backbone.features.10.conv.4.weight", 
      "attrs": {"__shape__": "(384,)"}, 
      "inputs": []
    }, 
    {
      "op": "null", 
      "name": "backbone.features.10.conv.4.bias", 
      "attrs": {"__shape__": "(384,)"}, 
      "inputs": []
    }, 
    {
      "op": "null", 
      "name": "backbone.features.10.conv.4.running_mean", 
      "attrs": {
        "__init__": "[\"zero\", {}]", 
        "__shape__": "(384,)"
      }, 
      "inputs": []
    }, 
    {
      "op": "null", 
      "name": "backbone.features.10.conv.4.running_var", 
      "attrs": {
        "__init__": "[\"one\", {}]", 
        "__shape__": "(384,)"
      }, 
      "inputs": []
    }, 
    {
      "op": "BatchNorm", 
      "name": "batchnorm28", 
      "attrs": {
        "cudnn_off": "1", 
        "eps": "9.999999747378752e-06", 
        "fix_gamma": "False", 
        "momentum": "0.8999999761581421"
      }, 
      "inputs": [[251, 0, 0], [252, 0, 0], [253, 0, 0], [254, 0, 1], [255, 0, 1]]
    }, 
    {
      "op": "relu", 
      "name": "relu19", 
      "inputs": [[256, 0, 0]]
    }, 
    {
      "op": "Pad", 
      "name": "pad29", 
      "attrs": {
        "mode": "constant", 
        "pad_width": "(0, 0, 0, 0, 0, 0, 0, 0)"
      }, 
      "inputs": [[257, 0, 0]]
    }, 
    {
      "op": "null", 
      "name": "backbone.features.10.conv.6.weight", 
      "attrs": {"__shape__": "(64, 384, 1, 1)"}, 
      "inputs": []
    }, 
    {
      "op": "Convolution", 
      "name": "convolution29", 
      "attrs": {
        "dilate": "(1, 1)", 
        "kernel": "(1, 1)", 
        "no_bias": "True", 
        "num_filter": "64", 
        "num_group": "1", 
        "stride": "(1, 1)"
      }, 
      "inputs": [[258, 0, 0], [259, 0, 0]]
    }, 
    {
      "op": "null", 
      "name": "backbone.features.10.conv.7.weight", 
      "attrs": {"__shape__": "(64,)"}, 
      "inputs": []
    }, 
    {
      "op": "null", 
      "name": "backbone.features.10.conv.7.bias", 
      "attrs": {"__shape__": "(64,)"}, 
      "inputs": []
    }, 
    {
      "op": "null", 
      "name": "backbone.features.10.conv.7.running_mean", 
      "attrs": {
        "__init__": "[\"zero\", {}]", 
        "__shape__": "(64,)"
      }, 
      "inputs": []
    }, 
    {
      "op": "null", 
      "name": "backbone.features.10.conv.7.running_var", 
      "attrs": {
        "__init__": "[\"one\", {}]", 
        "__shape__": "(64,)"
      }, 
      "inputs": []
    }, 
    {
      "op": "BatchNorm", 
      "name": "batchnorm29", 
      "attrs": {
        "cudnn_off": "1", 
        "eps": "9.999999747378752e-06", 
        "fix_gamma": "False", 
        "momentum": "0.8999999761581421"
      }, 
      "inputs": [[260, 0, 0], [261, 0, 0], [262, 0, 0], [263, 0, 1], [264, 0, 1]]
    }, 
    {
      "op": "broadcast_add", 
      "name": "broadcast_add5", 
      "inputs": [[239, 0, 0], [265, 0, 0]]
    }, 
    {
      "op": "Pad", 
      "name": "pad30", 
      "attrs": {
        "mode": "constant", 
        "pad_width": "(0, 0, 0, 0, 0, 0, 0, 0)"
      }, 
      "inputs": [[266, 0, 0]]
    }, 
    {
      "op": "null", 
      "name": "backbone.features.11.conv.0.weight", 
      "attrs": {"__shape__": "(384, 64, 1, 1)"}, 
      "inputs": []
    }, 
    {
      "op": "Convolution", 
      "name": "convolution30", 
      "attrs": {
        "dilate": "(1, 1)", 
        "kernel": "(1, 1)", 
        "no_bias": "True", 
        "num_filter": "384", 
        "num_group": "1", 
        "stride": "(1, 1)"
      }, 
      "inputs": [[267, 0, 0], [268, 0, 0]]
    }, 
    {
      "op": "null", 
      "name": "backbone.features.11.conv.1.weight", 
      "attrs": {"__shape__": "(384,)"}, 
      "inputs": []
    }, 
    {
      "op": "null", 
      "name": "backbone.features.11.conv.1.bias", 
      "attrs": {"__shape__": "(384,)"}, 
      "inputs": []
    }, 
    {
      "op": "null", 
      "name": "backbone.features.11.conv.1.running_mean", 
      "attrs": {
        "__init__": "[\"zero\", {}]", 
        "__shape__": "(384,)"
      }, 
      "inputs": []
    }, 
    {
      "op": "null", 
      "name": "backbone.features.11.conv.1.running_var", 
      "attrs": {
        "__init__": "[\"one\", {}]", 
        "__shape__": "(384,)"
      }, 
      "inputs": []
    }, 
    {
      "op": "BatchNorm", 
      "name": "batchnorm30", 
      "attrs": {
        "cudnn_off": "1", 
        "eps": "9.999999747378752e-06", 
        "fix_gamma": "False", 
        "momentum": "0.8999999761581421"
      }, 
      "inputs": [[269, 0, 0], [270, 0, 0], [271, 0, 0], [272, 0, 1], [273, 0, 1]]
    }, 
    {
      "op": "relu", 
      "name": "relu20", 
      "inputs": [[274, 0, 0]]
    }, 
    {
      "op": "Pad", 
      "name": "pad31", 
      "attrs": {
        "mode": "constant", 
        "pad_width": "(0, 0, 0, 0, 1, 1, 1, 1)"
      }, 
      "inputs": [[275, 0, 0]]
    }, 
    {
      "op": "null", 
      "name": "backbone.features.11.conv.3.weight", 
      "attrs": {"__shape__": "(384, 1, 3, 3)"}, 
      "inputs": []
    }, 
    {
      "op": "Convolution", 
      "name": "convolution31", 
      "attrs": {
        "dilate": "(1, 1)", 
        "kernel": "(3, 3)", 
        "no_bias": "True", 
        "num_filter": "384", 
        "num_group": "384", 
        "stride": "(1, 1)"
      }, 
      "inputs": [[276, 0, 0], [277, 0, 0]]
    }, 
    {
      "op": "null", 
      "name": "backbone.features.11.conv.4.weight", 
      "attrs": {"__shape__": "(384,)"}, 
      "inputs": []
    }, 
    {
      "op": "null", 
      "name": "backbone.features.11.conv.4.bias", 
      "attrs": {"__shape__": "(384,)"}, 
      "inputs": []
    }, 
    {
      "op": "null", 
      "name": "backbone.features.11.conv.4.running_mean", 
      "attrs": {
        "__init__": "[\"zero\", {}]", 
        "__shape__": "(384,)"
      }, 
      "inputs": []
    }, 
    {
      "op": "null", 
      "name": "backbone.features.11.conv.4.running_var", 
      "attrs": {
        "__init__": "[\"one\", {}]", 
        "__shape__": "(384,)"
      }, 
      "inputs": []
    }, 
    {
      "op": "BatchNorm", 
      "name": "batchnorm31", 
      "attrs": {
        "cudnn_off": "1", 
        "eps": "9.999999747378752e-06", 
        "fix_gamma": "False", 
        "momentum": "0.8999999761581421"
      }, 
      "inputs": [[278, 0, 0], [279, 0, 0], [280, 0, 0], [281, 0, 1], [282, 0, 1]]
    }, 
    {
      "op": "relu", 
      "name": "relu21", 
      "inputs": [[283, 0, 0]]
    }, 
    {
      "op": "Pad", 
      "name": "pad32", 
      "attrs": {
        "mode": "constant", 
        "pad_width": "(0, 0, 0, 0, 0, 0, 0, 0)"
      }, 
      "inputs": [[284, 0, 0]]
    }, 
    {
      "op": "null", 
      "name": "backbone.features.11.conv.6.weight", 
      "attrs": {"__shape__": "(96, 384, 1, 1)"}, 
      "inputs": []
    }, 
    {
      "op": "Convolution", 
      "name": "convolution32", 
      "attrs": {
        "dilate": "(1, 1)", 
        "kernel": "(1, 1)", 
        "no_bias": "True", 
        "num_filter": "96", 
        "num_group": "1", 
        "stride": "(1, 1)"
      }, 
      "inputs": [[285, 0, 0], [286, 0, 0]]
    }, 
    {
      "op": "null", 
      "name": "backbone.features.11.conv.7.weight", 
      "attrs": {"__shape__": "(96,)"}, 
      "inputs": []
    }, 
    {
      "op": "null", 
      "name": "backbone.features.11.conv.7.bias", 
      "attrs": {"__shape__": "(96,)"}, 
      "inputs": []
    }, 
    {
      "op": "null", 
      "name": "backbone.features.11.conv.7.running_mean", 
      "attrs": {
        "__init__": "[\"zero\", {}]", 
        "__shape__": "(96,)"
      }, 
      "inputs": []
    }, 
    {
      "op": "null", 
      "name": "backbone.features.11.conv.7.running_var", 
      "attrs": {
        "__init__": "[\"one\", {}]", 
        "__shape__": "(96,)"
      }, 
      "inputs": []
    }, 
    {
      "op": "BatchNorm", 
      "name": "batchnorm32", 
      "attrs": {
        "cudnn_off": "1", 
        "eps": "9.999999747378752e-06", 
        "fix_gamma": "False", 
        "momentum": "0.8999999761581421"
      }, 
      "inputs": [[287, 0, 0], [288, 0, 0], [289, 0, 0], [290, 0, 1], [291, 0, 1]]
    }, 
    {
      "op": "Pad", 
      "name": "pad33", 
      "attrs": {
        "mode": "constant", 
        "pad_width": "(0, 0, 0, 0, 0, 0, 0, 0)"
      }, 
      "inputs": [[292, 0, 0]]
    }, 
    {
      "op": "null", 
      "name": "backbone.features.12.conv.0.weight", 
      "attrs": {"__shape__": "(576, 96, 1, 1)"}, 
      "inputs": []
    }, 
    {
      "op": "Convolution", 
      "name": "convolution33", 
      "attrs": {
        "dilate": "(1, 1)", 
        "kernel": "(1, 1)", 
        "no_bias": "True", 
        "num_filter": "576", 
        "num_group": "1", 
        "stride": "(1, 1)"
      }, 
      "inputs": [[293, 0, 0], [294, 0, 0]]
    }, 
    {
      "op": "null", 
      "name": "backbone.features.12.conv.1.weight", 
      "attrs": {"__shape__": "(576,)"}, 
      "inputs": []
    }, 
    {
      "op": "null", 
      "name": "backbone.features.12.conv.1.bias", 
      "attrs": {"__shape__": "(576,)"}, 
      "inputs": []
    }, 
    {
      "op": "null", 
      "name": "backbone.features.12.conv.1.running_mean", 
      "attrs": {
        "__init__": "[\"zero\", {}]", 
        "__shape__": "(576,)"
      }, 
      "inputs": []
    }, 
    {
      "op": "null", 
      "name": "backbone.features.12.conv.1.running_var", 
      "attrs": {
        "__init__": "[\"one\", {}]", 
        "__shape__": "(576,)"
      }, 
      "inputs": []
    }, 
    {
      "op": "BatchNorm", 
      "name": "batchnorm33", 
      "attrs": {
        "cudnn_off": "1", 
        "eps": "9.999999747378752e-06", 
        "fix_gamma": "False", 
        "momentum": "0.8999999761581421"
      }, 
      "inputs": [[295, 0, 0], [296, 0, 0], [297, 0, 0], [298, 0, 1], [299, 0, 1]]
    }, 
    {
      "op": "relu", 
      "name": "relu22", 
      "inputs": [[300, 0, 0]]
    }, 
    {
      "op": "Pad", 
      "name": "pad34", 
      "attrs": {
        "mode": "constant", 
        "pad_width": "(0, 0, 0, 0, 1, 1, 1, 1)"
      }, 
      "inputs": [[301, 0, 0]]
    }, 
    {
      "op": "null", 
      "name": "backbone.features.12.conv.3.weight", 
      "attrs": {"__shape__": "(576, 1, 3, 3)"}, 
      "inputs": []
    }, 
    {
      "op": "Convolution", 
      "name": "convolution34", 
      "attrs": {
        "dilate": "(1, 1)", 
        "kernel": "(3, 3)", 
        "no_bias": "True", 
        "num_filter": "576", 
        "num_group": "576", 
        "stride": "(1, 1)"
      }, 
      "inputs": [[302, 0, 0], [303, 0, 0]]
    }, 
    {
      "op": "null", 
      "name": "backbone.features.12.conv.4.weight", 
      "attrs": {"__shape__": "(576,)"}, 
      "inputs": []
    }, 
    {
      "op": "null", 
      "name": "backbone.features.12.conv.4.bias", 
      "attrs": {"__shape__": "(576,)"}, 
      "inputs": []
    }, 
    {
      "op": "null", 
      "name": "backbone.features.12.conv.4.running_mean", 
      "attrs": {
        "__init__": "[\"zero\", {}]", 
        "__shape__": "(576,)"
      }, 
      "inputs": []
    }, 
    {
      "op": "null", 
      "name": "backbone.features.12.conv.4.running_var", 
      "attrs": {
        "__init__": "[\"one\", {}]", 
        "__shape__": "(576,)"
      }, 
      "inputs": []
    }, 
    {
      "op": "BatchNorm", 
      "name": "batchnorm34", 
      "attrs": {
        "cudnn_off": "1", 
        "eps": "9.999999747378752e-06", 
        "fix_gamma": "False", 
        "momentum": "0.8999999761581421"
      }, 
      "inputs": [[304, 0, 0], [305, 0, 0], [306, 0, 0], [307, 0, 1], [308, 0, 1]]
    }, 
    {
      "op": "relu", 
      "name": "relu23", 
      "inputs": [[309, 0, 0]]
    }, 
    {
      "op": "Pad", 
      "name": "pad35", 
      "attrs": {
        "mode": "constant", 
        "pad_width": "(0, 0, 0, 0, 0, 0, 0, 0)"
      }, 
      "inputs": [[310, 0, 0]]
    }, 
    {
      "op": "null", 
      "name": "backbone.features.12.conv.6.weight", 
      "attrs": {"__shape__": "(96, 576, 1, 1)"}, 
      "inputs": []
    }, 
    {
      "op": "Convolution", 
      "name": "convolution35", 
      "attrs": {
        "dilate": "(1, 1)", 
        "kernel": "(1, 1)", 
        "no_bias": "True", 
        "num_filter": "96", 
        "num_group": "1", 
        "stride": "(1, 1)"
      }, 
      "inputs": [[311, 0, 0], [312, 0, 0]]
    }, 
    {
      "op": "null", 
      "name": "backbone.features.12.conv.7.weight", 
      "attrs": {"__shape__": "(96,)"}, 
      "inputs": []
    }, 
    {
      "op": "null", 
      "name": "backbone.features.12.conv.7.bias", 
      "attrs": {"__shape__": "(96,)"}, 
      "inputs": []
    }, 
    {
      "op": "null", 
      "name": "backbone.features.12.conv.7.running_mean", 
      "attrs": {
        "__init__": "[\"zero\", {}]", 
        "__shape__": "(96,)"
      }, 
      "inputs": []
    }, 
    {
      "op": "null", 
      "name": "backbone.features.12.conv.7.running_var", 
      "attrs": {
        "__init__": "[\"one\", {}]", 
        "__shape__": "(96,)"
      }, 
      "inputs": []
    }, 
    {
      "op": "BatchNorm", 
      "name": "batchnorm35", 
      "attrs": {
        "cudnn_off": "1", 
        "eps": "9.999999747378752e-06", 
        "fix_gamma": "False", 
        "momentum": "0.8999999761581421"
      }, 
      "inputs": [[313, 0, 0], [314, 0, 0], [315, 0, 0], [316, 0, 1], [317, 0, 1]]
    }, 
    {
      "op": "broadcast_add", 
      "name": "broadcast_add6", 
      "inputs": [[292, 0, 0], [318, 0, 0]]
    }, 
    {
      "op": "Pad", 
      "name": "pad36", 
      "attrs": {
        "mode": "constant", 
        "pad_width": "(0, 0, 0, 0, 0, 0, 0, 0)"
      }, 
      "inputs": [[319, 0, 0]]
    }, 
    {
      "op": "null", 
      "name": "backbone.features.13.conv.0.weight", 
      "attrs": {"__shape__": "(576, 96, 1, 1)"}, 
      "inputs": []
    }, 
    {
      "op": "Convolution", 
      "name": "convolution36", 
      "attrs": {
        "dilate": "(1, 1)", 
        "kernel": "(1, 1)", 
        "no_bias": "True", 
        "num_filter": "576", 
        "num_group": "1", 
        "stride": "(1, 1)"
      }, 
      "inputs": [[320, 0, 0], [321, 0, 0]]
    }, 
    {
      "op": "null", 
      "name": "backbone.features.13.conv.1.weight", 
      "attrs": {"__shape__": "(576,)"}, 
      "inputs": []
    }, 
    {
      "op": "null", 
      "name": "backbone.features.13.conv.1.bias", 
      "attrs": {"__shape__": "(576,)"}, 
      "inputs": []
    }, 
    {
      "op": "null", 
      "name": "backbone.features.13.conv.1.running_mean", 
      "attrs": {
        "__init__": "[\"zero\", {}]", 
        "__shape__": "(576,)"
      }, 
      "inputs": []
    }, 
    {
      "op": "null", 
      "name": "backbone.features.13.conv.1.running_var", 
      "attrs": {
        "__init__": "[\"one\", {}]", 
        "__shape__": "(576,)"
      }, 
      "inputs": []
    }, 
    {
      "op": "BatchNorm", 
      "name": "batchnorm36", 
      "attrs": {
        "cudnn_off": "1", 
        "eps": "9.999999747378752e-06", 
        "fix_gamma": "False", 
        "momentum": "0.8999999761581421"
      }, 
      "inputs": [[322, 0, 0], [323, 0, 0], [324, 0, 0], [325, 0, 1], [326, 0, 1]]
    }, 
    {
      "op": "relu", 
      "name": "relu24", 
      "inputs": [[327, 0, 0]]
    }, 
    {
      "op": "Pad", 
      "name": "pad37", 
      "attrs": {
        "mode": "constant", 
        "pad_width": "(0, 0, 0, 0, 1, 1, 1, 1)"
      }, 
      "inputs": [[328, 0, 0]]
    }, 
    {
      "op": "null", 
      "name": "backbone.features.13.conv.3.weight", 
      "attrs": {"__shape__": "(576, 1, 3, 3)"}, 
      "inputs": []
    }, 
    {
      "op": "Convolution", 
      "name": "convolution37", 
      "attrs": {
        "dilate": "(1, 1)", 
        "kernel": "(3, 3)", 
        "no_bias": "True", 
        "num_filter": "576", 
        "num_group": "576", 
        "stride": "(1, 1)"
      }, 
      "inputs": [[329, 0, 0], [330, 0, 0]]
    }, 
    {
      "op": "null", 
      "name": "backbone.features.13.conv.4.weight", 
      "attrs": {"__shape__": "(576,)"}, 
      "inputs": []
    }, 
    {
      "op": "null", 
      "name": "backbone.features.13.conv.4.bias", 
      "attrs": {"__shape__": "(576,)"}, 
      "inputs": []
    }, 
    {
      "op": "null", 
      "name": "backbone.features.13.conv.4.running_mean", 
      "attrs": {
        "__init__": "[\"zero\", {}]", 
        "__shape__": "(576,)"
      }, 
      "inputs": []
    }, 
    {
      "op": "null", 
      "name": "backbone.features.13.conv.4.running_var", 
      "attrs": {
        "__init__": "[\"one\", {}]", 
        "__shape__": "(576,)"
      }, 
      "inputs": []
    }, 
    {
      "op": "BatchNorm", 
      "name": "batchnorm37", 
      "attrs": {
        "cudnn_off": "1", 
        "eps": "9.999999747378752e-06", 
        "fix_gamma": "False", 
        "momentum": "0.8999999761581421"
      }, 
      "inputs": [[331, 0, 0], [332, 0, 0], [333, 0, 0], [334, 0, 1], [335, 0, 1]]
    }, 
    {
      "op": "relu", 
      "name": "relu25", 
      "inputs": [[336, 0, 0]]
    }, 
    {
      "op": "Pad", 
      "name": "pad38", 
      "attrs": {
        "mode": "constant", 
        "pad_width": "(0, 0, 0, 0, 0, 0, 0, 0)"
      }, 
      "inputs": [[337, 0, 0]]
    }, 
    {
      "op": "null", 
      "name": "backbone.features.13.conv.6.weight", 
      "attrs": {"__shape__": "(96, 576, 1, 1)"}, 
      "inputs": []
    }, 
    {
      "op": "Convolution", 
      "name": "convolution38", 
      "attrs": {
        "dilate": "(1, 1)", 
        "kernel": "(1, 1)", 
        "no_bias": "True", 
        "num_filter": "96", 
        "num_group": "1", 
        "stride": "(1, 1)"
      }, 
      "inputs": [[338, 0, 0], [339, 0, 0]]
    }, 
    {
      "op": "null", 
      "name": "backbone.features.13.conv.7.weight", 
      "attrs": {"__shape__": "(96,)"}, 
      "inputs": []
    }, 
    {
      "op": "null", 
      "name": "backbone.features.13.conv.7.bias", 
      "attrs": {"__shape__": "(96,)"}, 
      "inputs": []
    }, 
    {
      "op": "null", 
      "name": "backbone.features.13.conv.7.running_mean", 
      "attrs": {
        "__init__": "[\"zero\", {}]", 
        "__shape__": "(96,)"
      }, 
      "inputs": []
    }, 
    {
      "op": "null", 
      "name": "backbone.features.13.conv.7.running_var", 
      "attrs": {
        "__init__": "[\"one\", {}]", 
        "__shape__": "(96,)"
      }, 
      "inputs": []
    }, 
    {
      "op": "BatchNorm", 
      "name": "batchnorm38", 
      "attrs": {
        "cudnn_off": "1", 
        "eps": "9.999999747378752e-06", 
        "fix_gamma": "False", 
        "momentum": "0.8999999761581421"
      }, 
      "inputs": [[340, 0, 0], [341, 0, 0], [342, 0, 0], [343, 0, 1], [344, 0, 1]]
    }, 
    {
      "op": "broadcast_add", 
      "name": "broadcast_add7", 
      "inputs": [[319, 0, 0], [345, 0, 0]]
    }, 
    {
      "op": "Pad", 
      "name": "pad39", 
      "attrs": {
        "mode": "constant", 
        "pad_width": "(0, 0, 0, 0, 0, 0, 0, 0)"
      }, 
      "inputs": [[346, 0, 0]]
    }, 
    {
      "op": "null", 
      "name": "backbone.features.14.conv.0.weight", 
      "attrs": {"__shape__": "(576, 96, 1, 1)"}, 
      "inputs": []
    }, 
    {
      "op": "Convolution", 
      "name": "convolution39", 
      "attrs": {
        "dilate": "(1, 1)", 
        "kernel": "(1, 1)", 
        "no_bias": "True", 
        "num_filter": "576", 
        "num_group": "1", 
        "stride": "(1, 1)"
      }, 
      "inputs": [[347, 0, 0], [348, 0, 0]]
    }, 
    {
      "op": "null", 
      "name": "backbone.features.14.conv.1.weight", 
      "attrs": {"__shape__": "(576,)"}, 
      "inputs": []
    }, 
    {
      "op": "null", 
      "name": "backbone.features.14.conv.1.bias", 
      "attrs": {"__shape__": "(576,)"}, 
      "inputs": []
    }, 
    {
      "op": "null", 
      "name": "backbone.features.14.conv.1.running_mean", 
      "attrs": {
        "__init__": "[\"zero\", {}]", 
        "__shape__": "(576,)"
      }, 
      "inputs": []
    }, 
    {
      "op": "null", 
      "name": "backbone.features.14.conv.1.running_var", 
      "attrs": {
        "__init__": "[\"one\", {}]", 
        "__shape__": "(576,)"
      }, 
      "inputs": []
    }, 
    {
      "op": "BatchNorm", 
      "name": "batchnorm39", 
      "attrs": {
        "cudnn_off": "1", 
        "eps": "9.999999747378752e-06", 
        "fix_gamma": "False", 
        "momentum": "0.8999999761581421"
      }, 
      "inputs": [[349, 0, 0], [350, 0, 0], [351, 0, 0], [352, 0, 1], [353, 0, 1]]
    }, 
    {
      "op": "relu", 
      "name": "relu26", 
      "inputs": [[354, 0, 0]]
    }, 
    {
      "op": "Pad", 
      "name": "pad40", 
      "attrs": {
        "mode": "constant", 
        "pad_width": "(0, 0, 0, 0, 1, 1, 1, 1)"
      }, 
      "inputs": [[355, 0, 0]]
    }, 
    {
      "op": "null", 
      "name": "backbone.features.14.conv.3.weight", 
      "attrs": {"__shape__": "(576, 1, 3, 3)"}, 
      "inputs": []
    }, 
    {
      "op": "Convolution", 
      "name": "convolution40", 
      "attrs": {
        "dilate": "(1, 1)", 
        "kernel": "(3, 3)", 
        "no_bias": "True", 
        "num_filter": "576", 
        "num_group": "576", 
        "stride": "(2, 2)"
      }, 
      "inputs": [[356, 0, 0], [357, 0, 0]]
    }, 
    {
      "op": "null", 
      "name": "backbone.features.14.conv.4.weight", 
      "attrs": {"__shape__": "(576,)"}, 
      "inputs": []
    }, 
    {
      "op": "null", 
      "name": "backbone.features.14.conv.4.bias", 
      "attrs": {"__shape__": "(576,)"}, 
      "inputs": []
    }, 
    {
      "op": "null", 
      "name": "backbone.features.14.conv.4.running_mean", 
      "attrs": {
        "__init__": "[\"zero\", {}]", 
        "__shape__": "(576,)"
      }, 
      "inputs": []
    }, 
    {
      "op": "null", 
      "name": "backbone.features.14.conv.4.running_var", 
      "attrs": {
        "__init__": "[\"one\", {}]", 
        "__shape__": "(576,)"
      }, 
      "inputs": []
    }, 
    {
      "op": "BatchNorm", 
      "name": "batchnorm40", 
      "attrs": {
        "cudnn_off": "1", 
        "eps": "9.999999747378752e-06", 
        "fix_gamma": "False", 
        "momentum": "0.8999999761581421"
      }, 
      "inputs": [[358, 0, 0], [359, 0, 0], [360, 0, 0], [361, 0, 1], [362, 0, 1]]
    }, 
    {
      "op": "relu", 
      "name": "relu27", 
      "inputs": [[363, 0, 0]]
    }, 
    {
      "op": "Pad", 
      "name": "pad41", 
      "attrs": {
        "mode": "constant", 
        "pad_width": "(0, 0, 0, 0, 0, 0, 0, 0)"
      }, 
      "inputs": [[364, 0, 0]]
    }, 
    {
      "op": "null", 
      "name": "backbone.features.14.conv.6.weight", 
      "attrs": {"__shape__": "(160, 576, 1, 1)"}, 
      "inputs": []
    }, 
    {
      "op": "Convolution", 
      "name": "convolution41", 
      "attrs": {
        "dilate": "(1, 1)", 
        "kernel": "(1, 1)", 
        "no_bias": "True", 
        "num_filter": "160", 
        "num_group": "1", 
        "stride": "(1, 1)"
      }, 
      "inputs": [[365, 0, 0], [366, 0, 0]]
    }, 
    {
      "op": "null", 
      "name": "backbone.features.14.conv.7.weight", 
      "attrs": {"__shape__": "(160,)"}, 
      "inputs": []
    }, 
    {
      "op": "null", 
      "name": "backbone.features.14.conv.7.bias", 
      "attrs": {"__shape__": "(160,)"}, 
      "inputs": []
    }, 
    {
      "op": "null", 
      "name": "backbone.features.14.conv.7.running_mean", 
      "attrs": {
        "__init__": "[\"zero\", {}]", 
        "__shape__": "(160,)"
      }, 
      "inputs": []
    }, 
    {
      "op": "null", 
      "name": "backbone.features.14.conv.7.running_var", 
      "attrs": {
        "__init__": "[\"one\", {}]", 
        "__shape__": "(160,)"
      }, 
      "inputs": []
    }, 
    {
      "op": "BatchNorm", 
      "name": "batchnorm41", 
      "attrs": {
        "cudnn_off": "1", 
        "eps": "9.999999747378752e-06", 
        "fix_gamma": "False", 
        "momentum": "0.8999999761581421"
      }, 
      "inputs": [[367, 0, 0], [368, 0, 0], [369, 0, 0], [370, 0, 1], [371, 0, 1]]
    }, 
    {
      "op": "Pad", 
      "name": "pad42", 
      "attrs": {
        "mode": "constant", 
        "pad_width": "(0, 0, 0, 0, 0, 0, 0, 0)"
      }, 
      "inputs": [[372, 0, 0]]
    }, 
    {
      "op": "null", 
      "name": "backbone.features.15.conv.0.weight", 
      "attrs": {"__shape__": "(960, 160, 1, 1)"}, 
      "inputs": []
    }, 
    {
      "op": "Convolution", 
      "name": "convolution42", 
      "attrs": {
        "dilate": "(1, 1)", 
        "kernel": "(1, 1)", 
        "no_bias": "True", 
        "num_filter": "960", 
        "num_group": "1", 
        "stride": "(1, 1)"
      }, 
      "inputs": [[373, 0, 0], [374, 0, 0]]
    }, 
    {
      "op": "null", 
      "name": "backbone.features.15.conv.1.weight", 
      "attrs": {"__shape__": "(960,)"}, 
      "inputs": []
    }, 
    {
      "op": "null", 
      "name": "backbone.features.15.conv.1.bias", 
      "attrs": {"__shape__": "(960,)"}, 
      "inputs": []
    }, 
    {
      "op": "null", 
      "name": "backbone.features.15.conv.1.running_mean", 
      "attrs": {
        "__init__": "[\"zero\", {}]", 
        "__shape__": "(960,)"
      }, 
      "inputs": []
    }, 
    {
      "op": "null", 
      "name": "backbone.features.15.conv.1.running_var", 
      "attrs": {
        "__init__": "[\"one\", {}]", 
        "__shape__": "(960,)"
      }, 
      "inputs": []
    }, 
    {
      "op": "BatchNorm", 
      "name": "batchnorm42", 
      "attrs": {
        "cudnn_off": "1", 
        "eps": "9.999999747378752e-06", 
        "fix_gamma": "False", 
        "momentum": "0.8999999761581421"
      }, 
      "inputs": [[375, 0, 0], [376, 0, 0], [377, 0, 0], [378, 0, 1], [379, 0, 1]]
    }, 
    {
      "op": "relu", 
      "name": "relu28", 
      "inputs": [[380, 0, 0]]
    }, 
    {
      "op": "Pad", 
      "name": "pad43", 
      "attrs": {
        "mode": "constant", 
        "pad_width": "(0, 0, 0, 0, 1, 1, 1, 1)"
      }, 
      "inputs": [[381, 0, 0]]
    }, 
    {
      "op": "null", 
      "name": "backbone.features.15.conv.3.weight", 
      "attrs": {"__shape__": "(960, 1, 3, 3)"}, 
      "inputs": []
    }, 
    {
      "op": "Convolution", 
      "name": "convolution43", 
      "attrs": {
        "dilate": "(1, 1)", 
        "kernel": "(3, 3)", 
        "no_bias": "True", 
        "num_filter": "960", 
        "num_group": "960", 
        "stride": "(1, 1)"
      }, 
      "inputs": [[382, 0, 0], [383, 0, 0]]
    }, 
    {
      "op": "null", 
      "name": "backbone.features.15.conv.4.weight", 
      "attrs": {"__shape__": "(960,)"}, 
      "inputs": []
    }, 
    {
      "op": "null", 
      "name": "backbone.features.15.conv.4.bias", 
      "attrs": {"__shape__": "(960,)"}, 
      "inputs": []
    }, 
    {
      "op": "null", 
      "name": "backbone.features.15.conv.4.running_mean", 
      "attrs": {
        "__init__": "[\"zero\", {}]", 
        "__shape__": "(960,)"
      }, 
      "inputs": []
    }, 
    {
      "op": "null", 
      "name": "backbone.features.15.conv.4.running_var", 
      "attrs": {
        "__init__": "[\"one\", {}]", 
        "__shape__": "(960,)"
      }, 
      "inputs": []
    }, 
    {
      "op": "BatchNorm", 
      "name": "batchnorm43", 
      "attrs": {
        "cudnn_off": "1", 
        "eps": "9.999999747378752e-06", 
        "fix_gamma": "False", 
        "momentum": "0.8999999761581421"
      }, 
      "inputs": [[384, 0, 0], [385, 0, 0], [386, 0, 0], [387, 0, 1], [388, 0, 1]]
    }, 
    {
      "op": "relu", 
      "name": "relu29", 
      "inputs": [[389, 0, 0]]
    }, 
    {
      "op": "Pad", 
      "name": "pad44", 
      "attrs": {
        "mode": "constant", 
        "pad_width": "(0, 0, 0, 0, 0, 0, 0, 0)"
      }, 
      "inputs": [[390, 0, 0]]
    }, 
    {
      "op": "null", 
      "name": "backbone.features.15.conv.6.weight", 
      "attrs": {"__shape__": "(160, 960, 1, 1)"}, 
      "inputs": []
    }, 
    {
      "op": "Convolution", 
      "name": "convolution44", 
      "attrs": {
        "dilate": "(1, 1)", 
        "kernel": "(1, 1)", 
        "no_bias": "True", 
        "num_filter": "160", 
        "num_group": "1", 
        "stride": "(1, 1)"
      }, 
      "inputs": [[391, 0, 0], [392, 0, 0]]
    }, 
    {
      "op": "null", 
      "name": "backbone.features.15.conv.7.weight", 
      "attrs": {"__shape__": "(160,)"}, 
      "inputs": []
    }, 
    {
      "op": "null", 
      "name": "backbone.features.15.conv.7.bias", 
      "attrs": {"__shape__": "(160,)"}, 
      "inputs": []
    }, 
    {
      "op": "null", 
      "name": "backbone.features.15.conv.7.running_mean", 
      "attrs": {
        "__init__": "[\"zero\", {}]", 
        "__shape__": "(160,)"
      }, 
      "inputs": []
    }, 
    {
      "op": "null", 
      "name": "backbone.features.15.conv.7.running_var", 
      "attrs": {
        "__init__": "[\"one\", {}]", 
        "__shape__": "(160,)"
      }, 
      "inputs": []
    }, 
    {
      "op": "BatchNorm", 
      "name": "batchnorm44", 
      "attrs": {
        "cudnn_off": "1", 
        "eps": "9.999999747378752e-06", 
        "fix_gamma": "False", 
        "momentum": "0.8999999761581421"
      }, 
      "inputs": [[393, 0, 0], [394, 0, 0], [395, 0, 0], [396, 0, 1], [397, 0, 1]]
    }, 
    {
      "op": "broadcast_add", 
      "name": "broadcast_add8", 
      "inputs": [[372, 0, 0], [398, 0, 0]]
    }, 
    {
      "op": "Pad", 
      "name": "pad45", 
      "attrs": {
        "mode": "constant", 
        "pad_width": "(0, 0, 0, 0, 0, 0, 0, 0)"
      }, 
      "inputs": [[399, 0, 0]]
    }, 
    {
      "op": "null", 
      "name": "backbone.features.16.conv.0.weight", 
      "attrs": {"__shape__": "(960, 160, 1, 1)"}, 
      "inputs": []
    }, 
    {
      "op": "Convolution", 
      "name": "convolution45", 
      "attrs": {
        "dilate": "(1, 1)", 
        "kernel": "(1, 1)", 
        "no_bias": "True", 
        "num_filter": "960", 
        "num_group": "1", 
        "stride": "(1, 1)"
      }, 
      "inputs": [[400, 0, 0], [401, 0, 0]]
    }, 
    {
      "op": "null", 
      "name": "backbone.features.16.conv.1.weight", 
      "attrs": {"__shape__": "(960,)"}, 
      "inputs": []
    }, 
    {
      "op": "null", 
      "name": "backbone.features.16.conv.1.bias", 
      "attrs": {"__shape__": "(960,)"}, 
      "inputs": []
    }, 
    {
      "op": "null", 
      "name": "backbone.features.16.conv.1.running_mean", 
      "attrs": {
        "__init__": "[\"zero\", {}]", 
        "__shape__": "(960,)"
      }, 
      "inputs": []
    }, 
    {
      "op": "null", 
      "name": "backbone.features.16.conv.1.running_var", 
      "attrs": {
        "__init__": "[\"one\", {}]", 
        "__shape__": "(960,)"
      }, 
      "inputs": []
    }, 
    {
      "op": "BatchNorm", 
      "name": "batchnorm45", 
      "attrs": {
        "cudnn_off": "1", 
        "eps": "9.999999747378752e-06", 
        "fix_gamma": "False", 
        "momentum": "0.8999999761581421"
      }, 
      "inputs": [[402, 0, 0], [403, 0, 0], [404, 0, 0], [405, 0, 1], [406, 0, 1]]
    }, 
    {
      "op": "relu", 
      "name": "relu30", 
      "inputs": [[407, 0, 0]]
    }, 
    {
      "op": "Pad", 
      "name": "pad46", 
      "attrs": {
        "mode": "constant", 
        "pad_width": "(0, 0, 0, 0, 1, 1, 1, 1)"
      }, 
      "inputs": [[408, 0, 0]]
    }, 
    {
      "op": "null", 
      "name": "backbone.features.16.conv.3.weight", 
      "attrs": {"__shape__": "(960, 1, 3, 3)"}, 
      "inputs": []
    }, 
    {
      "op": "Convolution", 
      "name": "convolution46", 
      "attrs": {
        "dilate": "(1, 1)", 
        "kernel": "(3, 3)", 
        "no_bias": "True", 
        "num_filter": "960", 
        "num_group": "960", 
        "stride": "(1, 1)"
      }, 
      "inputs": [[409, 0, 0], [410, 0, 0]]
    }, 
    {
      "op": "null", 
      "name": "backbone.features.16.conv.4.weight", 
      "attrs": {"__shape__": "(960,)"}, 
      "inputs": []
    }, 
    {
      "op": "null", 
      "name": "backbone.features.16.conv.4.bias", 
      "attrs": {"__shape__": "(960,)"}, 
      "inputs": []
    }, 
    {
      "op": "null", 
      "name": "backbone.features.16.conv.4.running_mean", 
      "attrs": {
        "__init__": "[\"zero\", {}]", 
        "__shape__": "(960,)"
      }, 
      "inputs": []
    }, 
    {
      "op": "null", 
      "name": "backbone.features.16.conv.4.running_var", 
      "attrs": {
        "__init__": "[\"one\", {}]", 
        "__shape__": "(960,)"
      }, 
      "inputs": []
    }, 
    {
      "op": "BatchNorm", 
      "name": "batchnorm46", 
      "attrs": {
        "cudnn_off": "1", 
        "eps": "9.999999747378752e-06", 
        "fix_gamma": "False", 
        "momentum": "0.8999999761581421"
      }, 
      "inputs": [[411, 0, 0], [412, 0, 0], [413, 0, 0], [414, 0, 1], [415, 0, 1]]
    }, 
    {
      "op": "relu", 
      "name": "relu31", 
      "inputs": [[416, 0, 0]]
    }, 
    {
      "op": "Pad", 
      "name": "pad47", 
      "attrs": {
        "mode": "constant", 
        "pad_width": "(0, 0, 0, 0, 0, 0, 0, 0)"
      }, 
      "inputs": [[417, 0, 0]]
    }, 
    {
      "op": "null", 
      "name": "backbone.features.16.conv.6.weight", 
      "attrs": {"__shape__": "(160, 960, 1, 1)"}, 
      "inputs": []
    }, 
    {
      "op": "Convolution", 
      "name": "convolution47", 
      "attrs": {
        "dilate": "(1, 1)", 
        "kernel": "(1, 1)", 
        "no_bias": "True", 
        "num_filter": "160", 
        "num_group": "1", 
        "stride": "(1, 1)"
      }, 
      "inputs": [[418, 0, 0], [419, 0, 0]]
    }, 
    {
      "op": "null", 
      "name": "backbone.features.16.conv.7.weight", 
      "attrs": {"__shape__": "(160,)"}, 
      "inputs": []
    }, 
    {
      "op": "null", 
      "name": "backbone.features.16.conv.7.bias", 
      "attrs": {"__shape__": "(160,)"}, 
      "inputs": []
    }, 
    {
      "op": "null", 
      "name": "backbone.features.16.conv.7.running_mean", 
      "attrs": {
        "__init__": "[\"zero\", {}]", 
        "__shape__": "(160,)"
      }, 
      "inputs": []
    }, 
    {
      "op": "null", 
      "name": "backbone.features.16.conv.7.running_var", 
      "attrs": {
        "__init__": "[\"one\", {}]", 
        "__shape__": "(160,)"
      }, 
      "inputs": []
    }, 
    {
      "op": "BatchNorm", 
      "name": "batchnorm47", 
      "attrs": {
        "cudnn_off": "1", 
        "eps": "9.999999747378752e-06", 
        "fix_gamma": "False", 
        "momentum": "0.8999999761581421"
      }, 
      "inputs": [[420, 0, 0], [421, 0, 0], [422, 0, 0], [423, 0, 1], [424, 0, 1]]
    }, 
    {
      "op": "broadcast_add", 
      "name": "broadcast_add9", 
      "inputs": [[399, 0, 0], [425, 0, 0]]
    }, 
    {
      "op": "Pad", 
      "name": "pad48", 
      "attrs": {
        "mode": "constant", 
        "pad_width": "(0, 0, 0, 0, 0, 0, 0, 0)"
      }, 
      "inputs": [[426, 0, 0]]
    }, 
    {
      "op": "null", 
      "name": "backbone.features.17.conv.0.weight", 
      "attrs": {"__shape__": "(960, 160, 1, 1)"}, 
      "inputs": []
    }, 
    {
      "op": "Convolution", 
      "name": "convolution48", 
      "attrs": {
        "dilate": "(1, 1)", 
        "kernel": "(1, 1)", 
        "no_bias": "True", 
        "num_filter": "960", 
        "num_group": "1", 
        "stride": "(1, 1)"
      }, 
      "inputs": [[427, 0, 0], [428, 0, 0]]
    }, 
    {
      "op": "null", 
      "name": "backbone.features.17.conv.1.weight", 
      "attrs": {"__shape__": "(960,)"}, 
      "inputs": []
    }, 
    {
      "op": "null", 
      "name": "backbone.features.17.conv.1.bias", 
      "attrs": {"__shape__": "(960,)"}, 
      "inputs": []
    }, 
    {
      "op": "null", 
      "name": "backbone.features.17.conv.1.running_mean", 
      "attrs": {
        "__init__": "[\"zero\", {}]", 
        "__shape__": "(960,)"
      }, 
      "inputs": []
    }, 
    {
      "op": "null", 
      "name": "backbone.features.17.conv.1.running_var", 
      "attrs": {
        "__init__": "[\"one\", {}]", 
        "__shape__": "(960,)"
      }, 
      "inputs": []
    }, 
    {
      "op": "BatchNorm", 
      "name": "batchnorm48", 
      "attrs": {
        "cudnn_off": "1", 
        "eps": "9.999999747378752e-06", 
        "fix_gamma": "False", 
        "momentum": "0.8999999761581421"
      }, 
      "inputs": [[429, 0, 0], [430, 0, 0], [431, 0, 0], [432, 0, 1], [433, 0, 1]]
    }, 
    {
      "op": "relu", 
      "name": "relu32", 
      "inputs": [[434, 0, 0]]
    }, 
    {
      "op": "Pad", 
      "name": "pad49", 
      "attrs": {
        "mode": "constant", 
        "pad_width": "(0, 0, 0, 0, 1, 1, 1, 1)"
      }, 
      "inputs": [[435, 0, 0]]
    }, 
    {
      "op": "null", 
      "name": "backbone.features.17.conv.3.weight", 
      "attrs": {"__shape__": "(960, 1, 3, 3)"}, 
      "inputs": []
    }, 
    {
      "op": "Convolution", 
      "name": "convolution49", 
      "attrs": {
        "dilate": "(1, 1)", 
        "kernel": "(3, 3)", 
        "no_bias": "True", 
        "num_filter": "960", 
        "num_group": "960", 
        "stride": "(1, 1)"
      }, 
      "inputs": [[436, 0, 0], [437, 0, 0]]
    }, 
    {
      "op": "null", 
      "name": "backbone.features.17.conv.4.weight", 
      "attrs": {"__shape__": "(960,)"}, 
      "inputs": []
    }, 
    {
      "op": "null", 
      "name": "backbone.features.17.conv.4.bias", 
      "attrs": {"__shape__": "(960,)"}, 
      "inputs": []
    }, 
    {
      "op": "null", 
      "name": "backbone.features.17.conv.4.running_mean", 
      "attrs": {
        "__init__": "[\"zero\", {}]", 
        "__shape__": "(960,)"
      }, 
      "inputs": []
    }, 
    {
      "op": "null", 
      "name": "backbone.features.17.conv.4.running_var", 
      "attrs": {
        "__init__": "[\"one\", {}]", 
        "__shape__": "(960,)"
      }, 
      "inputs": []
    }, 
    {
      "op": "BatchNorm", 
      "name": "batchnorm49", 
      "attrs": {
        "cudnn_off": "1", 
        "eps": "9.999999747378752e-06", 
        "fix_gamma": "False", 
        "momentum": "0.8999999761581421"
      }, 
      "inputs": [[438, 0, 0], [439, 0, 0], [440, 0, 0], [441, 0, 1], [442, 0, 1]]
    }, 
    {
      "op": "relu", 
      "name": "relu33", 
      "inputs": [[443, 0, 0]]
    }, 
    {
      "op": "Pad", 
      "name": "pad50", 
      "attrs": {
        "mode": "constant", 
        "pad_width": "(0, 0, 0, 0, 0, 0, 0, 0)"
      }, 
      "inputs": [[444, 0, 0]]
    }, 
    {
      "op": "null", 
      "name": "backbone.features.17.conv.6.weight", 
      "attrs": {"__shape__": "(320, 960, 1, 1)"}, 
      "inputs": []
    }, 
    {
      "op": "Convolution", 
      "name": "convolution50", 
      "attrs": {
        "dilate": "(1, 1)", 
        "kernel": "(1, 1)", 
        "no_bias": "True", 
        "num_filter": "320", 
        "num_group": "1", 
        "stride": "(1, 1)"
      }, 
      "inputs": [[445, 0, 0], [446, 0, 0]]
    }, 
    {
      "op": "null", 
      "name": "backbone.features.17.conv.7.weight", 
      "attrs": {"__shape__": "(320,)"}, 
      "inputs": []
    }, 
    {
      "op": "null", 
      "name": "backbone.features.17.conv.7.bias", 
      "attrs": {"__shape__": "(320,)"}, 
      "inputs": []
    }, 
    {
      "op": "null", 
      "name": "backbone.features.17.conv.7.running_mean", 
      "attrs": {
        "__init__": "[\"zero\", {}]", 
        "__shape__": "(320,)"
      }, 
      "inputs": []
    }, 
    {
      "op": "null", 
      "name": "backbone.features.17.conv.7.running_var", 
      "attrs": {
        "__init__": "[\"one\", {}]", 
        "__shape__": "(320,)"
      }, 
      "inputs": []
    }, 
    {
      "op": "BatchNorm", 
      "name": "batchnorm50", 
      "attrs": {
        "cudnn_off": "1", 
        "eps": "9.999999747378752e-06", 
        "fix_gamma": "False", 
        "momentum": "0.8999999761581421"
      }, 
      "inputs": [[447, 0, 0], [448, 0, 0], [449, 0, 0], [450, 0, 1], [451, 0, 1]]
    }, 
    {
      "op": "Pad", 
      "name": "pad51", 
      "attrs": {
        "mode": "constant", 
        "pad_width": "(0, 0, 0, 0, 0, 0, 0, 0)"
      }, 
      "inputs": [[452, 0, 0]]
    }, 
    {
      "op": "null", 
      "name": "neck.lateral_layers.3.conv.weight", 
      "attrs": {"__shape__": "(24, 320, 1, 1)"}, 
      "inputs": []
    }, 
    {
      "op": "Convolution", 
      "name": "convolution51", 
      "attrs": {
        "dilate": "(1, 1)", 
        "kernel": "(1, 1)", 
        "no_bias": "True", 
        "num_filter": "24", 
        "num_group": "1", 
        "stride": "(1, 1)"
      }, 
      "inputs": [[453, 0, 0], [454, 0, 0]]
    }, 
    {
      "op": "null", 
      "name": "neck.lateral_layers.3.bn.weight", 
      "attrs": {"__shape__": "(24,)"}, 
      "inputs": []
    }, 
    {
      "op": "null", 
      "name": "neck.lateral_layers.3.bn.bias", 
      "attrs": {"__shape__": "(24,)"}, 
      "inputs": []
    }, 
    {
      "op": "null", 
      "name": "neck.lateral_layers.3.bn.running_mean", 
      "attrs": {
        "__init__": "[\"zero\", {}]", 
        "__shape__": "(24,)"
      }, 
      "inputs": []
    }, 
    {
      "op": "null", 
      "name": "neck.lateral_layers.3.bn.running_var", 
      "attrs": {
        "__init__": "[\"one\", {}]", 
        "__shape__": "(24,)"
      }, 
      "inputs": []
    }, 
    {
      "op": "BatchNorm", 
      "name": "batchnorm51", 
      "attrs": {
        "cudnn_off": "0", 
        "eps": "0.0010000000474974513", 
        "fix_gamma": "False", 
        "momentum": "0.8999999761581421"
      }, 
      "inputs": [[455, 0, 0], [456, 0, 0], [457, 0, 0], [458, 0, 1], [459, 0, 1]]
    }, 
    {
      "op": "relu", 
      "name": "relu34", 
      "inputs": [[460, 0, 0]]
    }, 
    {
      "op": "Pad", 
      "name": "pad52", 
      "attrs": {
        "mode": "constant", 
        "pad_width": "(0, 0, 0, 0, 0, 0, 0, 0)"
      }, 
      "inputs": [[461, 0, 0]]
    }, 
    {
      "op": "null", 
      "name": "neck.deconv_layers.2.conv.weight", 
      "attrs": {"__shape__": "(24, 24, 2, 2)"}, 
      "inputs": []
    }, 
    {
      "op": "Deconvolution", 
      "name": "deconvolution0", 
      "attrs": {
        "dilate": "(1, 1)", 
        "kernel": "(2, 2)", 
        "no_bias": "True", 
        "num_filter": "24", 
        "num_group": "1", 
        "stride": "(2, 2)"
      }, 
      "inputs": [[462, 0, 0], [463, 0, 0]]
    }, 
    {
      "op": "null", 
      "name": "neck.deconv_layers.2.bn.weight", 
      "attrs": {"__shape__": "(24,)"}, 
      "inputs": []
    }, 
    {
      "op": "null", 
      "name": "neck.deconv_layers.2.bn.bias", 
      "attrs": {"__shape__": "(24,)"}, 
      "inputs": []
    }, 
    {
      "op": "null", 
      "name": "neck.deconv_layers.2.bn.running_mean", 
      "attrs": {
        "__init__": "[\"zero\", {}]", 
        "__shape__": "(24,)"
      }, 
      "inputs": []
    }, 
    {
      "op": "null", 
      "name": "neck.deconv_layers.2.bn.running_var", 
      "attrs": {
        "__init__": "[\"one\", {}]", 
        "__shape__": "(24,)"
      }, 
      "inputs": []
    }, 
    {
      "op": "BatchNorm", 
      "name": "batchnorm52", 
      "attrs": {
        "cudnn_off": "0", 
        "eps": "0.0010000000474974513", 
        "fix_gamma": "False", 
        "momentum": "0.8999999761581421"
      }, 
      "inputs": [[464, 0, 0], [465, 0, 0], [466, 0, 0], [467, 0, 1], [468, 0, 1]]
    }, 
    {
      "op": "relu", 
      "name": "relu35", 
      "inputs": [[469, 0, 0]]
    }, 
    {
      "op": "Pad", 
      "name": "pad53", 
      "attrs": {
        "mode": "constant", 
        "pad_width": "(0, 0, 0, 0, 0, 0, 0, 0)"
      }, 
      "inputs": [[346, 0, 0]]
    }, 
    {
      "op": "null", 
      "name": "neck.lateral_layers.2.conv.weight", 
      "attrs": {"__shape__": "(24, 96, 1, 1)"}, 
      "inputs": []
    }, 
    {
      "op": "Convolution", 
      "name": "convolution52", 
      "attrs": {
        "dilate": "(1, 1)", 
        "kernel": "(1, 1)", 
        "no_bias": "True", 
        "num_filter": "24", 
        "num_group": "1", 
        "stride": "(1, 1)"
      }, 
      "inputs": [[471, 0, 0], [472, 0, 0]]
    }, 
    {
      "op": "null", 
      "name": "neck.lateral_layers.2.bn.weight", 
      "attrs": {"__shape__": "(24,)"}, 
      "inputs": []
    }, 
    {
      "op": "null", 
      "name": "neck.lateral_layers.2.bn.bias", 
      "attrs": {"__shape__": "(24,)"}, 
      "inputs": []
    }, 
    {
      "op": "null", 
      "name": "neck.lateral_layers.2.bn.running_mean", 
      "attrs": {
        "__init__": "[\"zero\", {}]", 
        "__shape__": "(24,)"
      }, 
      "inputs": []
    }, 
    {
      "op": "null", 
      "name": "neck.lateral_layers.2.bn.running_var", 
      "attrs": {
        "__init__": "[\"one\", {}]", 
        "__shape__": "(24,)"
      }, 
      "inputs": []
    }, 
    {
      "op": "BatchNorm", 
      "name": "batchnorm53", 
      "attrs": {
        "cudnn_off": "0", 
        "eps": "0.0010000000474974513", 
        "fix_gamma": "False", 
        "momentum": "0.8999999761581421"
      }, 
      "inputs": [[473, 0, 0], [474, 0, 0], [475, 0, 0], [476, 0, 1], [477, 0, 1]]
    }, 
    {
      "op": "relu", 
      "name": "relu36", 
      "inputs": [[478, 0, 0]]
    }, 
    {
      "op": "broadcast_add", 
      "name": "broadcast_add10", 
      "inputs": [[470, 0, 0], [479, 0, 0]]
    }, 
    {
      "op": "Pad", 
      "name": "pad54", 
      "attrs": {
        "mode": "constant", 
        "pad_width": "(0, 0, 0, 0, 0, 0, 0, 0)"
      }, 
      "inputs": [[480, 0, 0]]
    }, 
    {
      "op": "null", 
      "name": "neck.deconv_layers.1.conv.weight", 
      "attrs": {"__shape__": "(24, 24, 2, 2)"}, 
      "inputs": []
    }, 
    {
      "op": "Deconvolution", 
      "name": "deconvolution1", 
      "attrs": {
        "dilate": "(1, 1)", 
        "kernel": "(2, 2)", 
        "no_bias": "True", 
        "num_filter": "24", 
        "num_group": "1", 
        "stride": "(2, 2)"
      }, 
      "inputs": [[481, 0, 0], [482, 0, 0]]
    }, 
    {
      "op": "null", 
      "name": "neck.deconv_layers.1.bn.weight", 
      "attrs": {"__shape__": "(24,)"}, 
      "inputs": []
    }, 
    {
      "op": "null", 
      "name": "neck.deconv_layers.1.bn.bias", 
      "attrs": {"__shape__": "(24,)"}, 
      "inputs": []
    }, 
    {
      "op": "null", 
      "name": "neck.deconv_layers.1.bn.running_mean", 
      "attrs": {
        "__init__": "[\"zero\", {}]", 
        "__shape__": "(24,)"
      }, 
      "inputs": []
    }, 
    {
      "op": "null", 
      "name": "neck.deconv_layers.1.bn.running_var", 
      "attrs": {
        "__init__": "[\"one\", {}]", 
        "__shape__": "(24,)"
      }, 
      "inputs": []
    }, 
    {
      "op": "BatchNorm", 
      "name": "batchnorm54", 
      "attrs": {
        "cudnn_off": "0", 
        "eps": "0.0010000000474974513", 
        "fix_gamma": "False", 
        "momentum": "0.8999999761581421"
      }, 
      "inputs": [[483, 0, 0], [484, 0, 0], [485, 0, 0], [486, 0, 1], [487, 0, 1]]
    }, 
    {
      "op": "relu", 
      "name": "relu37", 
      "inputs": [[488, 0, 0]]
    }, 
    {
      "op": "Pad", 
      "name": "pad55", 
      "attrs": {
        "mode": "constant", 
        "pad_width": "(0, 0, 0, 0, 0, 0, 0, 0)"
      }, 
      "inputs": [[159, 0, 0]]
    }, 
    {
      "op": "null", 
      "name": "neck.lateral_layers.1.conv.weight", 
      "attrs": {"__shape__": "(24, 32, 1, 1)"}, 
      "inputs": []
    }, 
    {
      "op": "Convolution", 
      "name": "convolution53", 
      "attrs": {
        "dilate": "(1, 1)", 
        "kernel": "(1, 1)", 
        "no_bias": "True", 
        "num_filter": "24", 
        "num_group": "1", 
        "stride": "(1, 1)"
      }, 
      "inputs": [[490, 0, 0], [491, 0, 0]]
    }, 
    {
      "op": "null", 
      "name": "neck.lateral_layers.1.bn.weight", 
      "attrs": {"__shape__": "(24,)"}, 
      "inputs": []
    }, 
    {
      "op": "null", 
      "name": "neck.lateral_layers.1.bn.bias", 
      "attrs": {"__shape__": "(24,)"}, 
      "inputs": []
    }, 
    {
      "op": "null", 
      "name": "neck.lateral_layers.1.bn.running_mean", 
      "attrs": {
        "__init__": "[\"zero\", {}]", 
        "__shape__": "(24,)"
      }, 
      "inputs": []
    }, 
    {
      "op": "null", 
      "name": "neck.lateral_layers.1.bn.running_var", 
      "attrs": {
        "__init__": "[\"one\", {}]", 
        "__shape__": "(24,)"
      }, 
      "inputs": []
    }, 
    {
      "op": "BatchNorm", 
      "name": "batchnorm55", 
      "attrs": {
        "cudnn_off": "0", 
        "eps": "0.0010000000474974513", 
        "fix_gamma": "False", 
        "momentum": "0.8999999761581421"
      }, 
      "inputs": [[492, 0, 0], [493, 0, 0], [494, 0, 0], [495, 0, 1], [496, 0, 1]]
    }, 
    {
      "op": "relu", 
      "name": "relu38", 
      "inputs": [[497, 0, 0]]
    }, 
    {
      "op": "broadcast_add", 
      "name": "broadcast_add11", 
      "inputs": [[489, 0, 0], [498, 0, 0]]
    }, 
    {
      "op": "Pad", 
      "name": "pad56", 
      "attrs": {
        "mode": "constant", 
        "pad_width": "(0, 0, 0, 0, 0, 0, 0, 0)"
      }, 
      "inputs": [[499, 0, 0]]
    }, 
    {
      "op": "null", 
      "name": "neck.deconv_layers.0.conv.weight", 
      "attrs": {"__shape__": "(24, 24, 2, 2)"}, 
      "inputs": []
    }, 
    {
      "op": "Deconvolution", 
      "name": "deconvolution2", 
      "attrs": {
        "dilate": "(1, 1)", 
        "kernel": "(2, 2)", 
        "no_bias": "True", 
        "num_filter": "24", 
        "num_group": "1", 
        "stride": "(2, 2)"
      }, 
      "inputs": [[500, 0, 0], [501, 0, 0]]
    }, 
    {
      "op": "null", 
      "name": "neck.deconv_layers.0.bn.weight", 
      "attrs": {"__shape__": "(24,)"}, 
      "inputs": []
    }, 
    {
      "op": "null", 
      "name": "neck.deconv_layers.0.bn.bias", 
      "attrs": {"__shape__": "(24,)"}, 
      "inputs": []
    }, 
    {
      "op": "null", 
      "name": "neck.deconv_layers.0.bn.running_mean", 
      "attrs": {
        "__init__": "[\"zero\", {}]", 
        "__shape__": "(24,)"
      }, 
      "inputs": []
    }, 
    {
      "op": "null", 
      "name": "neck.deconv_layers.0.bn.running_var", 
      "attrs": {
        "__init__": "[\"one\", {}]", 
        "__shape__": "(24,)"
      }, 
      "inputs": []
    }, 
    {
      "op": "BatchNorm", 
      "name": "batchnorm56", 
      "attrs": {
        "cudnn_off": "0", 
        "eps": "0.0010000000474974513", 
        "fix_gamma": "False", 
        "momentum": "0.8999999761581421"
      }, 
      "inputs": [[502, 0, 0], [503, 0, 0], [504, 0, 0], [505, 0, 1], [506, 0, 1]]
    }, 
    {
      "op": "relu", 
      "name": "relu39", 
      "inputs": [[507, 0, 0]]
    }, 
    {
      "op": "Pad", 
      "name": "pad57", 
      "attrs": {
        "mode": "constant", 
        "pad_width": "(0, 0, 0, 0, 0, 0, 0, 0)"
      }, 
      "inputs": [[79, 0, 0]]
    }, 
    {
      "op": "null", 
      "name": "neck.lateral_layers.0.conv.weight", 
      "attrs": {"__shape__": "(24, 24, 1, 1)"}, 
      "inputs": []
    }, 
    {
      "op": "Convolution", 
      "name": "convolution54", 
      "attrs": {
        "dilate": "(1, 1)", 
        "kernel": "(1, 1)", 
        "no_bias": "True", 
        "num_filter": "24", 
        "num_group": "1", 
        "stride": "(1, 1)"
      }, 
      "inputs": [[509, 0, 0], [510, 0, 0]]
    }, 
    {
      "op": "null", 
      "name": "neck.lateral_layers.0.bn.weight", 
      "attrs": {"__shape__": "(24,)"}, 
      "inputs": []
    }, 
    {
      "op": "null", 
      "name": "neck.lateral_layers.0.bn.bias", 
      "attrs": {"__shape__": "(24,)"}, 
      "inputs": []
    }, 
    {
      "op": "null", 
      "name": "neck.lateral_layers.0.bn.running_mean", 
      "attrs": {
        "__init__": "[\"zero\", {}]", 
        "__shape__": "(24,)"
      }, 
      "inputs": []
    }, 
    {
      "op": "null", 
      "name": "neck.lateral_layers.0.bn.running_var", 
      "attrs": {
        "__init__": "[\"one\", {}]", 
        "__shape__": "(24,)"
      }, 
      "inputs": []
    }, 
    {
      "op": "BatchNorm", 
      "name": "batchnorm57", 
      "attrs": {
        "cudnn_off": "0", 
        "eps": "0.0010000000474974513", 
        "fix_gamma": "False", 
        "momentum": "0.8999999761581421"
      }, 
      "inputs": [[511, 0, 0], [512, 0, 0], [513, 0, 0], [514, 0, 1], [515, 0, 1]]
    }, 
    {
      "op": "relu", 
      "name": "relu40", 
      "inputs": [[516, 0, 0]]
    }, 
    {
      "op": "broadcast_add", 
      "name": "broadcast_add12", 
      "inputs": [[508, 0, 0], [517, 0, 0]]
    }, 
    {
      "op": "Pad", 
      "name": "pad58", 
      "attrs": {
        "mode": "constant", 
        "pad_width": "(0, 0, 0, 0, 1, 1, 1, 1)"
      }, 
      "inputs": [[518, 0, 0]]
    }, 
    {
      "op": "null", 
      "name": "head.feat.weight", 
      "attrs": {"__shape__": "(24, 24, 3, 3)"}, 
      "inputs": []
    }, 
    {
      "op": "Convolution", 
      "name": "convolution55", 
      "attrs": {
        "dilate": "(1, 1)", 
        "kernel": "(3, 3)", 
        "no_bias": "True", 
        "num_filter": "24", 
        "num_group": "1", 
        "stride": "(1, 1)"
      }, 
      "inputs": [[519, 0, 0], [520, 0, 0]]
    }, 
    {
      "op": "null", 
      "name": "head.feat_bn.weight", 
      "attrs": {"__shape__": "(24,)"}, 
      "inputs": []
    }, 
    {
      "op": "null", 
      "name": "head.feat_bn.bias", 
      "attrs": {"__shape__": "(24,)"}, 
      "inputs": []
    }, 
    {
      "op": "null", 
      "name": "head.feat_bn.running_mean", 
      "attrs": {
        "__init__": "[\"zero\", {}]", 
        "__shape__": "(24,)"
      }, 
      "inputs": []
    }, 
    {
      "op": "null", 
      "name": "head.feat_bn.running_var", 
      "attrs": {
        "__init__": "[\"one\", {}]", 
        "__shape__": "(24,)"
      }, 
      "inputs": []
    }, 
    {
      "op": "BatchNorm", 
      "name": "batchnorm58", 
      "attrs": {
        "cudnn_off": "1", 
        "eps": "9.999999747378752e-06", 
        "fix_gamma": "False", 
        "momentum": "0.9900000095367432"
      }, 
      "inputs": [[521, 0, 0], [522, 0, 0], [523, 0, 0], [524, 0, 1], [525, 0, 1]]
    }, 
    {
      "op": "relu", 
      "name": "relu41", 
      "inputs": [[526, 0, 0]]
    }, 
    {
      "op": "Pad", 
      "name": "pad59", 
      "attrs": {
        "mode": "constant", 
        "pad_width": "(0, 0, 0, 0, 0, 0, 0, 0)"
      }, 
      "inputs": [[527, 0, 0]]
    }, 
    {
      "op": "null", 
      "name": "head.pos_conv.weight", 
      "attrs": {"__shape__": "(1, 24, 1, 1)"}, 
      "inputs": []
    }, 
    {
      "op": "null", 
      "name": "head.pos_conv.bias", 
      "attrs": {"__shape__": "(1,)"}, 
      "inputs": []
    }, 
    {
      "op": "Convolution", 
      "name": "convolution56", 
      "attrs": {
        "dilate": "(1, 1)", 
        "kernel": "(1, 1)", 
        "no_bias": "False", 
        "num_filter": "1", 
        "num_group": "1", 
        "stride": "(1, 1)"
      }, 
      "inputs": [[528, 0, 0], [529, 0, 0], [530, 0, 0]]
    }, 
    {
      "op": "sigmoid", 
      "name": "sigmoid0", 
      "inputs": [[531, 0, 0]]
    }, 
    {
      "op": "Pad", 
      "name": "pad60", 
      "attrs": {
        "mode": "constant", 
        "pad_width": "(0, 0, 0, 0, 0, 0, 0, 0)"
      }, 
      "inputs": [[527, 0, 0]]
    }, 
    {
      "op": "null", 
      "name": "head.reg_conv.weight", 
      "attrs": {"__shape__": "(2, 24, 1, 1)"}, 
      "inputs": []
    }, 
    {
      "op": "null", 
      "name": "head.reg_conv.bias", 
      "attrs": {"__shape__": "(2,)"}, 
      "inputs": []
    }, 
    {
      "op": "Convolution", 
      "name": "convolution57", 
      "attrs": {
        "dilate": "(1, 1)", 
        "kernel": "(1, 1)", 
        "no_bias": "False", 
        "num_filter": "2", 
        "num_group": "1", 
        "stride": "(1, 1)"
      }, 
      "inputs": [[533, 0, 0], [534, 0, 0], [535, 0, 0]]
    }, 
    {
      "op": "Pad", 
      "name": "pad61", 
      "attrs": {
        "mode": "constant", 
        "pad_width": "(0, 0, 0, 0, 0, 0, 0, 0)"
      }, 
      "inputs": [[527, 0, 0]]
    }, 
    {
      "op": "null", 
      "name": "head.off_conv.weight", 
      "attrs": {"__shape__": "(2, 24, 1, 1)"}, 
      "inputs": []
    }, 
    {
      "op": "null", 
      "name": "head.off_conv.bias", 
      "attrs": {"__shape__": "(2,)"}, 
      "inputs": []
    }, 
    {
      "op": "Convolution", 
      "name": "convolution58", 
      "attrs": {
        "dilate": "(1, 1)", 
        "kernel": "(1, 1)", 
        "no_bias": "False", 
        "num_filter": "2", 
        "num_group": "1", 
        "stride": "(1, 1)"
      }, 
      "inputs": [[537, 0, 0], [538, 0, 0], [539, 0, 0]]
    }, 
    {
      "op": "Pad", 
      "name": "pad62", 
      "attrs": {
        "mode": "constant", 
        "pad_width": "(0, 0, 0, 0, 0, 0, 0, 0)"
      }, 
      "inputs": [[527, 0, 0]]
    }, 
    {
      "op": "null", 
      "name": "head.lm_conv.weight", 
      "attrs": {"__shape__": "(10, 24, 1, 1)"}, 
      "inputs": []
    }, 
    {
      "op": "null", 
      "name": "head.lm_conv.bias", 
      "attrs": {"__shape__": "(10,)"}, 
      "inputs": []
    }, 
    {
      "op": "Convolution", 
      "name": "convolution59", 
      "attrs": {
        "dilate": "(1, 1)", 
        "kernel": "(1, 1)", 
        "no_bias": "False", 
        "num_filter": "10", 
        "num_group": "1", 
        "stride": "(1, 1)"
      }, 
      "inputs": [[541, 0, 0], [542, 0, 0], [543, 0, 0]]
    }
  ], 
  "arg_nodes": [
    0, 
    2, 
    4, 
    5, 
    6, 
    7, 
    11, 
    13, 
    14, 
    15, 
    16, 
    20, 
    22, 
    23, 
    24, 
    25, 
    28, 
    30, 
    31, 
    32, 
    33, 
    37, 
    39, 
    40, 
    41, 
    42, 
    46, 
    48, 
    49, 
    50, 
    51, 
    54, 
    56, 
    57, 
    58, 
    59, 
    63, 
    65, 
    66, 
    67, 
    68, 
    72, 
    74, 
    75, 
    76, 
    77, 
    81, 
    83, 
    84, 
    85, 
    86, 
    90, 
    92, 
    93, 
    94, 
    95, 
    99, 
    101, 
    102, 
    103, 
    104, 
    107, 
    109, 
    110, 
    111, 
    112, 
    116, 
    118, 
    119, 
    120, 
    121, 
    125, 
    127, 
    128, 
    129, 
    130, 
    134, 
    136, 
    137, 
    138, 
    139, 
    143, 
    145, 
    146, 
    147, 
    148, 
    152, 
    154, 
    155, 
    156, 
    157, 
    161, 
    163, 
    164, 
    165, 
    166, 
    170, 
    172, 
    173, 
    174, 
    175, 
    179, 
    181, 
    182, 
    183, 
    184, 
    187, 
    189, 
    190, 
    191, 
    192, 
    196, 
    198, 
    199, 
    200, 
    201, 
    205, 
    207, 
    208, 
    209, 
    210, 
    214, 
    216, 
    217, 
    218, 
    219, 
    223, 
    225, 
    226, 
    227, 
    228, 
    232, 
    234, 
    235, 
    236, 
    237, 
    241, 
    243, 
    244, 
    245, 
    246, 
    250, 
    252, 
    253, 
    254, 
    255, 
    259, 
    261, 
    262, 
    263, 
    264, 
    268, 
    270, 
    271, 
    272, 
    273, 
    277, 
    279, 
    280, 
    281, 
    282, 
    286, 
    288, 
    289, 
    290, 
    291, 
    294, 
    296, 
    297, 
    298, 
    299, 
    303, 
    305, 
    306, 
    307, 
    308, 
    312, 
    314, 
    315, 
    316, 
    317, 
    321, 
    323, 
    324, 
    325, 
    326, 
    330, 
    332, 
    333, 
    334, 
    335, 
    339, 
    341, 
    342, 
    343, 
    344, 
    348, 
    350, 
    351, 
    352, 
    353, 
    357, 
    359, 
    360, 
    361, 
    362, 
    366, 
    368, 
    369, 
    370, 
    371, 
    374, 
    376, 
    377, 
    378, 
    379, 
    383, 
    385, 
    386, 
    387, 
    388, 
    392, 
    394, 
    395, 
    396, 
    397, 
    401, 
    403, 
    404, 
    405, 
    406, 
    410, 
    412, 
    413, 
    414, 
    415, 
    419, 
    421, 
    422, 
    423, 
    424, 
    428, 
    430, 
    431, 
    432, 
    433, 
    437, 
    439, 
    440, 
    441, 
    442, 
    446, 
    448, 
    449, 
    450, 
    451, 
    454, 
    456, 
    457, 
    458, 
    459, 
    463, 
    465, 
    466, 
    467, 
    468, 
    472, 
    474, 
    475, 
    476, 
    477, 
    482, 
    484, 
    485, 
    486, 
    487, 
    491, 
    493, 
    494, 
    495, 
    496, 
    501, 
    503, 
    504, 
    505, 
    506, 
    510, 
    512, 
    513, 
    514, 
    515, 
    520, 
    522, 
    523, 
    524, 
    525, 
    529, 
    530, 
    534, 
    535, 
    538, 
    539, 
    542, 
    543
  ], 
  "node_row_ptr": [
    0, 
    1, 
    2, 
    3, 
    4, 
    5, 
    6, 
    7, 
    8, 
    11, 
    12, 
    13, 
    14, 
    15, 
    16, 
    17, 
    18, 
    19, 
    22, 
    23, 
    24, 
    25, 
    26, 
    27, 
    28, 
    29, 
    30, 
    33, 
    34, 
    35, 
    36, 
    37, 
    38, 
    39, 
    40, 
    43, 
    44, 
    45, 
    46, 
    47, 
    48, 
    49, 
    50, 
    51, 
    54, 
    55, 
    56, 
    57, 
    58, 
    59, 
    60, 
    61, 
    62, 
    65, 
    66, 
    67, 
    68, 
    69, 
    70, 
    71, 
    72, 
    75, 
    76, 
    77, 
    78, 
    79, 
    80, 
    81, 
    82, 
    83, 
    86, 
    87, 
    88, 
    89, 
    90, 
    91, 
    92, 
    93, 
    94, 
    97, 
    98, 
    99, 
    100, 
    101, 
    102, 
    103, 
    104, 
    105, 
    108, 
    109, 
    110, 
    111, 
    112, 
    113, 
    114, 
    115, 
    116, 
    119, 
    120, 
    121, 
    122, 
    123, 
    124, 
    125, 
    126, 
    127, 
    130, 
    131, 
    132, 
    133, 
    134, 
    135, 
    136, 
    137, 
    140, 
    141, 
    142, 
    143, 
    144, 
    145, 
    146, 
    147, 
    148, 
    151, 
    152, 
    153, 
    154, 
    155, 
    156, 
    157, 
    158, 
    159, 
    162, 
    163, 
    164, 
    165, 
    166, 
    167, 
    168, 
    169, 
    170, 
    173, 
    174, 
    175, 
    176, 
    177, 
    178, 
    179, 
    180, 
    181, 
    184, 
    185, 
    186, 
    187, 
    188, 
    189, 
    190, 
    191, 
    192, 
    195, 
    196, 
    197, 
    198, 
    199, 
    200, 
    201, 
    202, 
    203, 
    206, 
    207, 
    208, 
    209, 
    210, 
    211, 
    212, 
    213, 
    214, 
    217, 
    218, 
    219, 
    220, 
    221, 
    222, 
    223, 
    224, 
    225, 
    228, 
    229, 
    230, 
    231, 
    232, 
    233, 
    234, 
    235, 
    238, 
    239, 
    240, 
    241, 
    242, 
    243, 
    244, 
    245, 
    246, 
    249, 
    250, 
    251, 
    252, 
    253, 
    254, 
    255, 
    256, 
    257, 
    260, 
    261, 
    262, 
    263, 
    264, 
    265, 
    266, 
    267, 
    268, 
    271, 
    272, 
    273, 
    274, 
    275, 
    276, 
    277, 
    278, 
    279, 
    282, 
    283, 
    284, 
    285, 
    286, 
    287, 
    288, 
    289, 
    290, 
    293, 
    294, 
    295, 
    296, 
    297, 
    298, 
    299, 
    300, 
    301, 
    304, 
    305, 
    306, 
    307, 
    308, 
    309, 
    310, 
    311, 
    312, 
    315, 
    316, 
    317, 
    318, 
    319, 
    320, 
    321, 
    322, 
    323, 
    326, 
    327, 
    328, 
    329, 
    330, 
    331, 
    332, 
    333, 
    334, 
    337, 
    338, 
    339, 
    340, 
    341, 
    342, 
    343, 
    344, 
    345, 
    348, 
    349, 
    350, 
    351, 
    352, 
    353, 
    354, 
    355, 
    356, 
    359, 
    360, 
    361, 
    362, 
    363, 
    364, 
    365, 
    366, 
    369, 
    370, 
    371, 
    372, 
    373, 
    374, 
    375, 
    376, 
    377, 
    380, 
    381, 
    382, 
    383, 
    384, 
    385, 
    386, 
    387, 
    388, 
    391, 
    392, 
    393, 
    394, 
    395, 
    396, 
    397, 
    398, 
    399, 
    402, 
    403, 
    404, 
    405, 
    406, 
    407, 
    408, 
    409, 
    410, 
    413, 
    414, 
    415, 
    416, 
    417, 
    418, 
    419, 
    420, 
    421, 
    424, 
    425, 
    426, 
    427, 
    428, 
    429, 
    430, 
    431, 
    432, 
    435, 
    436, 
    437, 
    438, 
    439, 
    440, 
    441, 
    442, 
    443, 
    446, 
    447, 
    448, 
    449, 
    450, 
    451, 
    452, 
    453, 
    454, 
    457, 
    458, 
    459, 
    460, 
    461, 
    462, 
    463, 
    464, 
    467, 
    468, 
    469, 
    470, 
    471, 
    472, 
    473, 
    474, 
    475, 
    478, 
    479, 
    480, 
    481, 
    482, 
    483, 
    484, 
    485, 
    486, 
    489, 
    490, 
    491, 
    492, 
    493, 
    494, 
    495, 
    496, 
    497, 
    500, 
    501, 
    502, 
    503, 
    504, 
    505, 
    506, 
    507, 
    508, 
    511, 
    512, 
    513, 
    514, 
    515, 
    516, 
    517, 
    518, 
    519, 
    522, 
    523, 
    524, 
    525, 
    526, 
    527, 
    528, 
    529, 
    530, 
    533, 
    534, 
    535, 
    536, 
    537, 
    538, 
    539, 
    540, 
    541, 
    544, 
    545, 
    546, 
    547, 
    548, 
    549, 
    550, 
    551, 
    552, 
    555, 
    556, 
    557, 
    558, 
    559, 
    560, 
    561, 
    562, 
    565, 
    566, 
    567, 
    568, 
    569, 
    570, 
    571, 
    572, 
    573, 
    576, 
    577, 
    578, 
    579, 
    580, 
    581, 
    582, 
    583, 
    584, 
    587, 
    588, 
    589, 
    590, 
    591, 
    592, 
    593, 
    594, 
    595, 
    596, 
    599, 
    600, 
    601, 
    602, 
    603, 
    604, 
    605, 
    606, 
    607, 
    610, 
    611, 
    612, 
    613, 
    614, 
    615, 
    616, 
    617, 
    618, 
    619, 
    622, 
    623, 
    624, 
    625, 
    626, 
    627, 
    628, 
    629, 
    630, 
    633, 
    634, 
    635, 
    636, 
    637, 
    638, 
    639, 
    640, 
    641, 
    642, 
    645, 
    646, 
    647, 
    648, 
    649, 
    650, 
    651, 
    652, 
    653, 
    654, 
    655, 
    656, 
    657, 
    658, 
    659, 
    660, 
    661, 
    662, 
    663
  ], 
  "heads": [[532, 0, 0], [536, 0, 0], [540, 0, 0], [544, 0, 0]], 
  "attrs": {"mxnet_version": ["int", 10500]}
}